{"format": "graph-model", "generatedBy": "2.16.1", "convertedBy": "TensorFlow.js Converter v4.17.0", "signature": {"inputs": {"inputs": {"name": "inputs:0", "dtype": "DT_FLOAT", "tensorShape": {"dim": [{"size": "-1"}, {"size": "-1"}, {"size": "-1"}, {"size": "3"}]}}}, "outputs": {"output_0": {"name": "Identity:0", "dtype": "DT_FLOAT", "tensorShape": {"dim": [{"size": "-1"}, {"size": "7"}]}}}}, "modelTopology": {"node": [{"name": "ConstantFolding/StatefulPartitionedCall/functional_1_1/activation_18_1/truediv_recip", "op": "Const", "attr": {"value": {"tensor": {"dtype": "DT_FLOAT", "tensorShape": {}}}, "dtype": {"type": "DT_FLOAT"}}}, {"name": "ConstantFolding/StatefulPartitionedCall/functional_1_1/activation_17_1/truediv_recip", "op": "Const", "attr": {"value": {"tensor": {"dtype": "DT_FLOAT", "tensorShape": {}}}, "dtype": {"type": "DT_FLOAT"}}}, {"name": "StatefulPartitionedCall/functional_1_1/expanded_conv_10_project_bn_1/batchnorm/sub", "op": "Const", "attr": {"dtype": {"type": "DT_FLOAT"}, "value": {"tensor": {"dtype": "DT_FLOAT", "tensorShape": {"dim": [{"size": "96"}]}}}}}, {"name": "StatefulPartitionedCall/functional_1_1/Const_17", "op": "Const", "attr": {"value": {"tensor": {"dtype": "DT_FLOAT", "tensorShape": {}}}, "dtype": {"type": "DT_FLOAT"}}}, {"name": "StatefulPartitionedCall/functional_1_1/expanded_conv_10_squeeze_excite_avg_pool_1/Mean/reduction_indices", "op": "Const", "attr": {"value": {"tensor": {"dtype": "DT_INT32", "tensorShape": {"dim": [{"size": "2"}]}}}, "dtype": {"type": "DT_INT32"}}}, {"name": "StatefulPartitionedCall/functional_1_1/expanded_conv_10_squeeze_excite_conv_1/convolution/ReadVariableOp", "op": "Const", "attr": {"dtype": {"type": "DT_FLOAT"}, "value": {"tensor": {"dtype": "DT_FLOAT", "tensorShape": {"dim": [{"size": "1"}, {"size": "1"}, {"size": "576"}, {"size": "144"}]}}}}}, {"name": "StatefulPartitionedCall/functional_1_1/expanded_conv_10_squeeze_excite_conv_1/Reshape", "op": "Const", "attr": {"value": {"tensor": {"dtype": "DT_FLOAT", "tensorShape": {"dim": [{"size": "1"}, {"size": "1"}, {"size": "1"}, {"size": "144"}]}}}, "dtype": {"type": "DT_FLOAT"}}}, {"name": "StatefulPartitionedCall/functional_1_1/expanded_conv_10_squeeze_excite_conv_1_2/convolution/ReadVariableOp", "op": "Const", "attr": {"value": {"tensor": {"dtype": "DT_FLOAT", "tensorShape": {"dim": [{"size": "1"}, {"size": "1"}, {"size": "144"}, {"size": "576"}]}}}, "dtype": {"type": "DT_FLOAT"}}}, {"name": "StatefulPartitionedCall/functional_1_1/expanded_conv_10_squeeze_excite_conv_1_2/add", "op": "Const", "attr": {"dtype": {"type": "DT_FLOAT"}, "value": {"tensor": {"dtype": "DT_FLOAT", "tensorShape": {"dim": [{"size": "1"}, {"size": "1"}, {"size": "1"}, {"size": "576"}]}}}}}, {"name": "ConstantFolding/StatefulPartitionedCall/functional_1_1/activation_16_1/truediv_recip", "op": "Const", "attr": {"dtype": {"type": "DT_FLOAT"}, "value": {"tensor": {"dtype": "DT_FLOAT", "tensorShape": {}}}}}, {"name": "ConstantFolding/StatefulPartitionedCall/functional_1_1/activation_15_1/truediv_recip", "op": "Const", "attr": {"value": {"tensor": {"dtype": "DT_FLOAT", "tensorShape": {}}}, "dtype": {"type": "DT_FLOAT"}}}, {"name": "StatefulPartitionedCall/functional_1_1/expanded_conv_9_project_bn_1/batchnorm/sub", "op": "Const", "attr": {"dtype": {"type": "DT_FLOAT"}, "value": {"tensor": {"dtype": "DT_FLOAT", "tensorShape": {"dim": [{"size": "96"}]}}}}}, {"name": "StatefulPartitionedCall/functional_1_1/Const_15", "op": "Const", "attr": {"dtype": {"type": "DT_FLOAT"}, "value": {"tensor": {"dtype": "DT_FLOAT", "tensorShape": {}}}}}, {"name": "StatefulPartitionedCall/functional_1_1/expanded_conv_9_squeeze_excite_avg_pool_1/Mean/reduction_indices", "op": "Const", "attr": {"value": {"tensor": {"dtype": "DT_INT32", "tensorShape": {"dim": [{"size": "2"}]}}}, "dtype": {"type": "DT_INT32"}}}, {"name": "StatefulPartitionedCall/functional_1_1/expanded_conv_9_squeeze_excite_conv_1/convolution/ReadVariableOp", "op": "Const", "attr": {"value": {"tensor": {"dtype": "DT_FLOAT", "tensorShape": {"dim": [{"size": "1"}, {"size": "1"}, {"size": "576"}, {"size": "144"}]}}}, "dtype": {"type": "DT_FLOAT"}}}, {"name": "StatefulPartitionedCall/functional_1_1/expanded_conv_9_squeeze_excite_conv_1/Reshape", "op": "Const", "attr": {"value": {"tensor": {"dtype": "DT_FLOAT", "tensorShape": {"dim": [{"size": "1"}, {"size": "1"}, {"size": "1"}, {"size": "144"}]}}}, "dtype": {"type": "DT_FLOAT"}}}, {"name": "StatefulPartitionedCall/functional_1_1/expanded_conv_9_squeeze_excite_conv_1_2/convolution/ReadVariableOp", "op": "Const", "attr": {"value": {"tensor": {"dtype": "DT_FLOAT", "tensorShape": {"dim": [{"size": "1"}, {"size": "1"}, {"size": "144"}, {"size": "576"}]}}}, "dtype": {"type": "DT_FLOAT"}}}, {"name": "StatefulPartitionedCall/functional_1_1/expanded_conv_9_squeeze_excite_conv_1_2/add", "op": "Const", "attr": {"dtype": {"type": "DT_FLOAT"}, "value": {"tensor": {"dtype": "DT_FLOAT", "tensorShape": {"dim": [{"size": "1"}, {"size": "1"}, {"size": "1"}, {"size": "576"}]}}}}}, {"name": "ConstantFolding/StatefulPartitionedCall/functional_1_1/activation_14_1/truediv_recip", "op": "Const", "attr": {"value": {"tensor": {"dtype": "DT_FLOAT", "tensorShape": {}}}, "dtype": {"type": "DT_FLOAT"}}}, {"name": "ConstantFolding/StatefulPartitionedCall/functional_1_1/activation_13_1/truediv_recip", "op": "Const", "attr": {"dtype": {"type": "DT_FLOAT"}, "value": {"tensor": {"dtype": "DT_FLOAT", "tensorShape": {}}}}}, {"name": "StatefulPartitionedCall/functional_1_1/Const_13", "op": "Const", "attr": {"value": {"tensor": {"dtype": "DT_FLOAT", "tensorShape": {}}}, "dtype": {"type": "DT_FLOAT"}}}, {"name": "StatefulPartitionedCall/functional_1_1/expanded_conv_8_squeeze_excite_avg_pool_1/Mean/reduction_indices", "op": "Const", "attr": {"dtype": {"type": "DT_INT32"}, "value": {"tensor": {"dtype": "DT_INT32", "tensorShape": {"dim": [{"size": "2"}]}}}}}, {"name": "StatefulPartitionedCall/functional_1_1/expanded_conv_8_squeeze_excite_conv_1/convolution/ReadVariableOp", "op": "Const", "attr": {"dtype": {"type": "DT_FLOAT"}, "value": {"tensor": {"dtype": "DT_FLOAT", "tensorShape": {"dim": [{"size": "1"}, {"size": "1"}, {"size": "288"}, {"size": "72"}]}}}}}, {"name": "StatefulPartitionedCall/functional_1_1/expanded_conv_8_squeeze_excite_conv_1/Reshape", "op": "Const", "attr": {"value": {"tensor": {"dtype": "DT_FLOAT", "tensorShape": {"dim": [{"size": "1"}, {"size": "1"}, {"size": "1"}, {"size": "72"}]}}}, "dtype": {"type": "DT_FLOAT"}}}, {"name": "StatefulPartitionedCall/functional_1_1/expanded_conv_8_squeeze_excite_conv_1_2/convolution/ReadVariableOp", "op": "Const", "attr": {"dtype": {"type": "DT_FLOAT"}, "value": {"tensor": {"dtype": "DT_FLOAT", "tensorShape": {"dim": [{"size": "1"}, {"size": "1"}, {"size": "72"}, {"size": "288"}]}}}}}, {"name": "StatefulPartitionedCall/functional_1_1/expanded_conv_8_squeeze_excite_conv_1_2/add", "op": "Const", "attr": {"dtype": {"type": "DT_FLOAT"}, "value": {"tensor": {"dtype": "DT_FLOAT", "tensorShape": {"dim": [{"size": "1"}, {"size": "1"}, {"size": "1"}, {"size": "288"}]}}}}}, {"name": "ConstantFolding/StatefulPartitionedCall/functional_1_1/activation_12_1/truediv_recip", "op": "Const", "attr": {"value": {"tensor": {"dtype": "DT_FLOAT", "tensorShape": {}}}, "dtype": {"type": "DT_FLOAT"}}}, {"name": "ConstantFolding/StatefulPartitionedCall/functional_1_1/activation_11_1/truediv_recip", "op": "Const", "attr": {"dtype": {"type": "DT_FLOAT"}, "value": {"tensor": {"dtype": "DT_FLOAT", "tensorShape": {}}}}}, {"name": "StatefulPartitionedCall/functional_1_1/expanded_conv_7_project_bn_1/batchnorm/sub", "op": "Const", "attr": {"value": {"tensor": {"dtype": "DT_FLOAT", "tensorShape": {"dim": [{"size": "48"}]}}}, "dtype": {"type": "DT_FLOAT"}}}, {"name": "StatefulPartitionedCall/functional_1_1/Const_11", "op": "Const", "attr": {"dtype": {"type": "DT_FLOAT"}, "value": {"tensor": {"dtype": "DT_FLOAT", "tensorShape": {}}}}}, {"name": "StatefulPartitionedCall/functional_1_1/expanded_conv_7_squeeze_excite_avg_pool_1/Mean/reduction_indices", "op": "Const", "attr": {"dtype": {"type": "DT_INT32"}, "value": {"tensor": {"dtype": "DT_INT32", "tensorShape": {"dim": [{"size": "2"}]}}}}}, {"name": "StatefulPartitionedCall/functional_1_1/expanded_conv_7_squeeze_excite_conv_1/convolution/ReadVariableOp", "op": "Const", "attr": {"value": {"tensor": {"dtype": "DT_FLOAT", "tensorShape": {"dim": [{"size": "1"}, {"size": "1"}, {"size": "144"}, {"size": "40"}]}}}, "dtype": {"type": "DT_FLOAT"}}}, {"name": "StatefulPartitionedCall/functional_1_1/expanded_conv_7_squeeze_excite_conv_1/Reshape", "op": "Const", "attr": {"dtype": {"type": "DT_FLOAT"}, "value": {"tensor": {"dtype": "DT_FLOAT", "tensorShape": {"dim": [{"size": "1"}, {"size": "1"}, {"size": "1"}, {"size": "40"}]}}}}}, {"name": "StatefulPartitionedCall/functional_1_1/expanded_conv_7_squeeze_excite_conv_1_2/convolution/ReadVariableOp", "op": "Const", "attr": {"value": {"tensor": {"dtype": "DT_FLOAT", "tensorShape": {"dim": [{"size": "1"}, {"size": "1"}, {"size": "40"}, {"size": "144"}]}}}, "dtype": {"type": "DT_FLOAT"}}}, {"name": "StatefulPartitionedCall/functional_1_1/expanded_conv_7_squeeze_excite_conv_1_2/add", "op": "Const", "attr": {"value": {"tensor": {"dtype": "DT_FLOAT", "tensorShape": {"dim": [{"size": "1"}, {"size": "1"}, {"size": "1"}, {"size": "144"}]}}}, "dtype": {"type": "DT_FLOAT"}}}, {"name": "ConstantFolding/StatefulPartitionedCall/functional_1_1/activation_10_1/truediv_recip", "op": "Const", "attr": {"dtype": {"type": "DT_FLOAT"}, "value": {"tensor": {"dtype": "DT_FLOAT", "tensorShape": {}}}}}, {"name": "ConstantFolding/StatefulPartitionedCall/functional_1_1/activation_9_1/truediv_recip", "op": "Const", "attr": {"dtype": {"type": "DT_FLOAT"}, "value": {"tensor": {"dtype": "DT_FLOAT", "tensorShape": {}}}}}, {"name": "StatefulPartitionedCall/functional_1_1/Const_9", "op": "Const", "attr": {"dtype": {"type": "DT_FLOAT"}, "value": {"tensor": {"dtype": "DT_FLOAT", "tensorShape": {}}}}}, {"name": "StatefulPartitionedCall/functional_1_1/expanded_conv_6_squeeze_excite_avg_pool_1/Mean/reduction_indices", "op": "Const", "attr": {"dtype": {"type": "DT_INT32"}, "value": {"tensor": {"dtype": "DT_INT32", "tensorShape": {"dim": [{"size": "2"}]}}}}}, {"name": "StatefulPartitionedCall/functional_1_1/expanded_conv_6_squeeze_excite_conv_1/convolution/ReadVariableOp", "op": "Const", "attr": {"dtype": {"type": "DT_FLOAT"}, "value": {"tensor": {"dtype": "DT_FLOAT", "tensorShape": {"dim": [{"size": "1"}, {"size": "1"}, {"size": "120"}, {"size": "32"}]}}}}}, {"name": "StatefulPartitionedCall/functional_1_1/expanded_conv_6_squeeze_excite_conv_1/Reshape", "op": "Const", "attr": {"dtype": {"type": "DT_FLOAT"}, "value": {"tensor": {"dtype": "DT_FLOAT", "tensorShape": {"dim": [{"size": "1"}, {"size": "1"}, {"size": "1"}, {"size": "32"}]}}}}}, {"name": "StatefulPartitionedCall/functional_1_1/expanded_conv_6_squeeze_excite_conv_1_2/convolution/ReadVariableOp", "op": "Const", "attr": {"dtype": {"type": "DT_FLOAT"}, "value": {"tensor": {"dtype": "DT_FLOAT", "tensorShape": {"dim": [{"size": "1"}, {"size": "1"}, {"size": "32"}, {"size": "120"}]}}}}}, {"name": "StatefulPartitionedCall/functional_1_1/expanded_conv_6_squeeze_excite_conv_1_2/add", "op": "Const", "attr": {"value": {"tensor": {"dtype": "DT_FLOAT", "tensorShape": {"dim": [{"size": "1"}, {"size": "1"}, {"size": "1"}, {"size": "120"}]}}}, "dtype": {"type": "DT_FLOAT"}}}, {"name": "ConstantFolding/StatefulPartitionedCall/functional_1_1/activation_8_1/truediv_recip", "op": "Const", "attr": {"value": {"tensor": {"dtype": "DT_FLOAT", "tensorShape": {}}}, "dtype": {"type": "DT_FLOAT"}}}, {"name": "ConstantFolding/StatefulPartitionedCall/functional_1_1/activation_7_1/truediv_recip", "op": "Const", "attr": {"dtype": {"type": "DT_FLOAT"}, "value": {"tensor": {"dtype": "DT_FLOAT", "tensorShape": {}}}}}, {"name": "StatefulPartitionedCall/functional_1_1/expanded_conv_5_project_bn_1/batchnorm/sub", "op": "Const", "attr": {"value": {"tensor": {"dtype": "DT_FLOAT", "tensorShape": {"dim": [{"size": "40"}]}}}, "dtype": {"type": "DT_FLOAT"}}}, {"name": "StatefulPartitionedCall/functional_1_1/Const_7", "op": "Const", "attr": {"dtype": {"type": "DT_FLOAT"}, "value": {"tensor": {"dtype": "DT_FLOAT", "tensorShape": {}}}}}, {"name": "StatefulPartitionedCall/functional_1_1/expanded_conv_5_squeeze_excite_avg_pool_1/Mean/reduction_indices", "op": "Const", "attr": {"value": {"tensor": {"dtype": "DT_INT32", "tensorShape": {"dim": [{"size": "2"}]}}}, "dtype": {"type": "DT_INT32"}}}, {"name": "StatefulPartitionedCall/functional_1_1/expanded_conv_5_squeeze_excite_conv_1/convolution/ReadVariableOp", "op": "Const", "attr": {"dtype": {"type": "DT_FLOAT"}, "value": {"tensor": {"dtype": "DT_FLOAT", "tensorShape": {"dim": [{"size": "1"}, {"size": "1"}, {"size": "240"}, {"size": "64"}]}}}}}, {"name": "StatefulPartitionedCall/functional_1_1/expanded_conv_5_squeeze_excite_conv_1/Reshape", "op": "Const", "attr": {"value": {"tensor": {"dtype": "DT_FLOAT", "tensorShape": {"dim": [{"size": "1"}, {"size": "1"}, {"size": "1"}, {"size": "64"}]}}}, "dtype": {"type": "DT_FLOAT"}}}, {"name": "StatefulPartitionedCall/functional_1_1/expanded_conv_5_squeeze_excite_conv_1_2/convolution/ReadVariableOp", "op": "Const", "attr": {"value": {"tensor": {"dtype": "DT_FLOAT", "tensorShape": {"dim": [{"size": "1"}, {"size": "1"}, {"size": "64"}, {"size": "240"}]}}}, "dtype": {"type": "DT_FLOAT"}}}, {"name": "StatefulPartitionedCall/functional_1_1/expanded_conv_5_squeeze_excite_conv_1_2/add", "op": "Const", "attr": {"dtype": {"type": "DT_FLOAT"}, "value": {"tensor": {"dtype": "DT_FLOAT", "tensorShape": {"dim": [{"size": "1"}, {"size": "1"}, {"size": "1"}, {"size": "240"}]}}}}}, {"name": "ConstantFolding/StatefulPartitionedCall/functional_1_1/activation_6_1/truediv_recip", "op": "Const", "attr": {"dtype": {"type": "DT_FLOAT"}, "value": {"tensor": {"dtype": "DT_FLOAT", "tensorShape": {}}}}}, {"name": "ConstantFolding/StatefulPartitionedCall/functional_1_1/activation_5_1/truediv_recip", "op": "Const", "attr": {"value": {"tensor": {"dtype": "DT_FLOAT", "tensorShape": {}}}, "dtype": {"type": "DT_FLOAT"}}}, {"name": "StatefulPartitionedCall/functional_1_1/expanded_conv_4_project_bn_1/batchnorm/sub", "op": "Const", "attr": {"value": {"tensor": {"dtype": "DT_FLOAT", "tensorShape": {"dim": [{"size": "40"}]}}}, "dtype": {"type": "DT_FLOAT"}}}, {"name": "StatefulPartitionedCall/functional_1_1/Const_5", "op": "Const", "attr": {"value": {"tensor": {"dtype": "DT_FLOAT", "tensorShape": {}}}, "dtype": {"type": "DT_FLOAT"}}}, {"name": "StatefulPartitionedCall/functional_1_1/expanded_conv_4_squeeze_excite_avg_pool_1/Mean/reduction_indices", "op": "Const", "attr": {"value": {"tensor": {"dtype": "DT_INT32", "tensorShape": {"dim": [{"size": "2"}]}}}, "dtype": {"type": "DT_INT32"}}}, {"name": "StatefulPartitionedCall/functional_1_1/expanded_conv_4_squeeze_excite_conv_1/convolution/ReadVariableOp", "op": "Const", "attr": {"value": {"tensor": {"dtype": "DT_FLOAT", "tensorShape": {"dim": [{"size": "1"}, {"size": "1"}, {"size": "240"}, {"size": "64"}]}}}, "dtype": {"type": "DT_FLOAT"}}}, {"name": "StatefulPartitionedCall/functional_1_1/expanded_conv_4_squeeze_excite_conv_1/Reshape", "op": "Const", "attr": {"dtype": {"type": "DT_FLOAT"}, "value": {"tensor": {"dtype": "DT_FLOAT", "tensorShape": {"dim": [{"size": "1"}, {"size": "1"}, {"size": "1"}, {"size": "64"}]}}}}}, {"name": "StatefulPartitionedCall/functional_1_1/expanded_conv_4_squeeze_excite_conv_1_2/convolution/ReadVariableOp", "op": "Const", "attr": {"value": {"tensor": {"dtype": "DT_FLOAT", "tensorShape": {"dim": [{"size": "1"}, {"size": "1"}, {"size": "64"}, {"size": "240"}]}}}, "dtype": {"type": "DT_FLOAT"}}}, {"name": "StatefulPartitionedCall/functional_1_1/expanded_conv_4_squeeze_excite_conv_1_2/add", "op": "Const", "attr": {"dtype": {"type": "DT_FLOAT"}, "value": {"tensor": {"dtype": "DT_FLOAT", "tensorShape": {"dim": [{"size": "1"}, {"size": "1"}, {"size": "1"}, {"size": "240"}]}}}}}, {"name": "ConstantFolding/StatefulPartitionedCall/functional_1_1/activation_4_1/truediv_recip", "op": "Const", "attr": {"dtype": {"type": "DT_FLOAT"}, "value": {"tensor": {"dtype": "DT_FLOAT", "tensorShape": {}}}}}, {"name": "ConstantFolding/StatefulPartitionedCall/functional_1_1/activation_3_1/truediv_recip", "op": "Const", "attr": {"dtype": {"type": "DT_FLOAT"}, "value": {"tensor": {"dtype": "DT_FLOAT", "tensorShape": {}}}}}, {"name": "StatefulPartitionedCall/functional_1_1/Const_3", "op": "Const", "attr": {"dtype": {"type": "DT_FLOAT"}, "value": {"tensor": {"dtype": "DT_FLOAT", "tensorShape": {}}}}}, {"name": "StatefulPartitionedCall/functional_1_1/expanded_conv_3_squeeze_excite_avg_pool_1/Mean/reduction_indices", "op": "Const", "attr": {"value": {"tensor": {"dtype": "DT_INT32", "tensorShape": {"dim": [{"size": "2"}]}}}, "dtype": {"type": "DT_INT32"}}}, {"name": "StatefulPartitionedCall/functional_1_1/expanded_conv_3_squeeze_excite_conv_1/convolution/ReadVariableOp", "op": "Const", "attr": {"value": {"tensor": {"dtype": "DT_FLOAT", "tensorShape": {"dim": [{"size": "1"}, {"size": "1"}, {"size": "96"}, {"size": "24"}]}}}, "dtype": {"type": "DT_FLOAT"}}}, {"name": "StatefulPartitionedCall/functional_1_1/expanded_conv_3_squeeze_excite_conv_1/Reshape", "op": "Const", "attr": {"value": {"tensor": {"dtype": "DT_FLOAT", "tensorShape": {"dim": [{"size": "1"}, {"size": "1"}, {"size": "1"}, {"size": "24"}]}}}, "dtype": {"type": "DT_FLOAT"}}}, {"name": "StatefulPartitionedCall/functional_1_1/expanded_conv_3_squeeze_excite_conv_1_2/convolution/ReadVariableOp", "op": "Const", "attr": {"value": {"tensor": {"dtype": "DT_FLOAT", "tensorShape": {"dim": [{"size": "1"}, {"size": "1"}, {"size": "24"}, {"size": "96"}]}}}, "dtype": {"type": "DT_FLOAT"}}}, {"name": "StatefulPartitionedCall/functional_1_1/expanded_conv_3_squeeze_excite_conv_1_2/add", "op": "Const", "attr": {"dtype": {"type": "DT_FLOAT"}, "value": {"tensor": {"dtype": "DT_FLOAT", "tensorShape": {"dim": [{"size": "1"}, {"size": "1"}, {"size": "1"}, {"size": "96"}]}}}}}, {"name": "ConstantFolding/StatefulPartitionedCall/functional_1_1/activation_2_1/truediv_recip", "op": "Const", "attr": {"dtype": {"type": "DT_FLOAT"}, "value": {"tensor": {"dtype": "DT_FLOAT", "tensorShape": {}}}}}, {"name": "ConstantFolding/StatefulPartitionedCall/functional_1_1/activation_1_2/truediv_recip", "op": "Const", "attr": {"dtype": {"type": "DT_FLOAT"}, "value": {"tensor": {"dtype": "DT_FLOAT", "tensorShape": {}}}}}, {"name": "StatefulPartitionedCall/functional_1_1/expanded_conv_2_project_bn_1/batchnorm/sub", "op": "Const", "attr": {"value": {"tensor": {"dtype": "DT_FLOAT", "tensorShape": {"dim": [{"size": "24"}]}}}, "dtype": {"type": "DT_FLOAT"}}}, {"name": "StatefulPartitionedCall/functional_1_1/Const_1", "op": "Const", "attr": {"value": {"tensor": {"dtype": "DT_FLOAT", "tensorShape": {}}}, "dtype": {"type": "DT_FLOAT"}}}, {"name": "StatefulPartitionedCall/functional_1_1/expanded_conv_squeeze_excite_avg_pool_1/Mean/reduction_indices", "op": "Const", "attr": {"dtype": {"type": "DT_INT32"}, "value": {"tensor": {"dtype": "DT_INT32", "tensorShape": {"dim": [{"size": "2"}]}}}}}, {"name": "StatefulPartitionedCall/functional_1_1/expanded_conv_squeeze_excite_conv_1/convolution/ReadVariableOp", "op": "Const", "attr": {"dtype": {"type": "DT_FLOAT"}, "value": {"tensor": {"dtype": "DT_FLOAT", "tensorShape": {"dim": [{"size": "1"}, {"size": "1"}, {"size": "16"}, {"size": "8"}]}}}}}, {"name": "StatefulPartitionedCall/functional_1_1/expanded_conv_squeeze_excite_conv_1/Reshape", "op": "Const", "attr": {"value": {"tensor": {"dtype": "DT_FLOAT", "tensorShape": {"dim": [{"size": "1"}, {"size": "1"}, {"size": "1"}, {"size": "8"}]}}}, "dtype": {"type": "DT_FLOAT"}}}, {"name": "StatefulPartitionedCall/functional_1_1/expanded_conv_squeeze_excite_conv_1_2/convolution/ReadVariableOp", "op": "Const", "attr": {"dtype": {"type": "DT_FLOAT"}, "value": {"tensor": {"dtype": "DT_FLOAT", "tensorShape": {"dim": [{"size": "1"}, {"size": "1"}, {"size": "8"}, {"size": "16"}]}}}}}, {"name": "StatefulPartitionedCall/functional_1_1/expanded_conv_squeeze_excite_conv_1_2/add", "op": "Const", "attr": {"dtype": {"type": "DT_FLOAT"}, "value": {"tensor": {"dtype": "DT_FLOAT", "tensorShape": {"dim": [{"size": "1"}, {"size": "1"}, {"size": "1"}, {"size": "16"}]}}}}}, {"name": "ConstantFolding/StatefulPartitionedCall/functional_1_1/activation_1/truediv_recip", "op": "Const", "attr": {"dtype": {"type": "DT_FLOAT"}, "value": {"tensor": {"dtype": "DT_FLOAT", "tensorShape": {}}}}}, {"name": "StatefulPartitionedCall/functional_1_1/rescaling_1/Cast/x", "op": "Const", "attr": {"value": {"tensor": {"dtype": "DT_FLOAT", "tensorShape": {}}}, "dtype": {"type": "DT_FLOAT"}}}, {"name": "StatefulPartitionedCall/functional_1_1/rescaling_1/Cast_1/x", "op": "Const", "attr": {"dtype": {"type": "DT_FLOAT"}, "value": {"tensor": {"dtype": "DT_FLOAT", "tensorShape": {}}}}}, {"name": "StatefulPartitionedCall/functional_1_1/conv_1/convolution/merged_input", "op": "Const", "attr": {"dtype": {"type": "DT_FLOAT"}, "value": {"tensor": {"dtype": "DT_FLOAT", "tensorShape": {"dim": [{"size": "3"}, {"size": "3"}, {"size": "3"}, {"size": "16"}]}}}}}, {"name": "StatefulPartitionedCall/functional_1_1/conv_bn_1/batchnorm/sub", "op": "Const", "attr": {"value": {"tensor": {"dtype": "DT_FLOAT", "tensorShape": {"dim": [{"size": "16"}]}}}, "dtype": {"type": "DT_FLOAT"}}}, {"name": "StatefulPartitionedCall/functional_1_1/activation_1/Const", "op": "Const", "attr": {"value": {"tensor": {"dtype": "DT_FLOAT", "tensorShape": {}}}, "dtype": {"type": "DT_FLOAT"}}}, {"name": "StatefulPartitionedCall/functional_1_1/expanded_conv_depthwise_pad_1/Const", "op": "Const", "attr": {"value": {"tensor": {"dtype": "DT_INT32", "tensorShape": {"dim": [{"size": "4"}, {"size": "2"}]}}}, "dtype": {"type": "DT_INT32"}}}, {"name": "StatefulPartitionedCall/functional_1_1/expanded_conv_depthwise_1/depthwise/ReadVariableOp", "op": "Const", "attr": {"value": {"tensor": {"dtype": "DT_FLOAT", "tensorShape": {"dim": [{"size": "3"}, {"size": "3"}, {"size": "16"}, {"size": "1"}]}}}, "dtype": {"type": "DT_FLOAT"}}}, {"name": "StatefulPartitionedCall/functional_1_1/expanded_conv_depthwise_bn_1/batchnorm/mul", "op": "Const", "attr": {"dtype": {"type": "DT_FLOAT"}, "value": {"tensor": {"dtype": "DT_FLOAT", "tensorShape": {"dim": [{"size": "16"}]}}}}}, {"name": "StatefulPartitionedCall/functional_1_1/expanded_conv_depthwise_bn_1/batchnorm/sub", "op": "Const", "attr": {"value": {"tensor": {"dtype": "DT_FLOAT", "tensorShape": {"dim": [{"size": "16"}]}}}, "dtype": {"type": "DT_FLOAT"}}}, {"name": "StatefulPartitionedCall/functional_1_1/expanded_conv_project_1/convolution/merged_input", "op": "Const", "attr": {"value": {"tensor": {"dtype": "DT_FLOAT", "tensorShape": {"dim": [{"size": "1"}, {"size": "1"}, {"size": "16"}, {"size": "16"}]}}}, "dtype": {"type": "DT_FLOAT"}}}, {"name": "StatefulPartitionedCall/functional_1_1/expanded_conv_project_bn_1/batchnorm/sub", "op": "Const", "attr": {"dtype": {"type": "DT_FLOAT"}, "value": {"tensor": {"dtype": "DT_FLOAT", "tensorShape": {"dim": [{"size": "16"}]}}}}}, {"name": "StatefulPartitionedCall/functional_1_1/expanded_conv_1_expand_1/convolution/merged_input", "op": "Const", "attr": {"dtype": {"type": "DT_FLOAT"}, "value": {"tensor": {"dtype": "DT_FLOAT", "tensorShape": {"dim": [{"size": "1"}, {"size": "1"}, {"size": "16"}, {"size": "72"}]}}}}}, {"name": "StatefulPartitionedCall/functional_1_1/expanded_conv_1_expand_bn_1/batchnorm/sub", "op": "Const", "attr": {"dtype": {"type": "DT_FLOAT"}, "value": {"tensor": {"dtype": "DT_FLOAT", "tensorShape": {"dim": [{"size": "72"}]}}}}}, {"name": "StatefulPartitionedCall/functional_1_1/expanded_conv_1_depthwise_pad_1/Const", "op": "Const", "attr": {"dtype": {"type": "DT_INT32"}, "value": {"tensor": {"dtype": "DT_INT32", "tensorShape": {"dim": [{"size": "4"}, {"size": "2"}]}}}}}, {"name": "StatefulPartitionedCall/functional_1_1/expanded_conv_1_depthwise_1/depthwise/ReadVariableOp", "op": "Const", "attr": {"value": {"tensor": {"dtype": "DT_FLOAT", "tensorShape": {"dim": [{"size": "3"}, {"size": "3"}, {"size": "72"}, {"size": "1"}]}}}, "dtype": {"type": "DT_FLOAT"}}}, {"name": "StatefulPartitionedCall/functional_1_1/expanded_conv_1_depthwise_bn_1/batchnorm/mul", "op": "Const", "attr": {"dtype": {"type": "DT_FLOAT"}, "value": {"tensor": {"dtype": "DT_FLOAT", "tensorShape": {"dim": [{"size": "72"}]}}}}}, {"name": "StatefulPartitionedCall/functional_1_1/expanded_conv_1_depthwise_bn_1/batchnorm/sub", "op": "Const", "attr": {"value": {"tensor": {"dtype": "DT_FLOAT", "tensorShape": {"dim": [{"size": "72"}]}}}, "dtype": {"type": "DT_FLOAT"}}}, {"name": "StatefulPartitionedCall/functional_1_1/expanded_conv_1_project_1/convolution/merged_input", "op": "Const", "attr": {"value": {"tensor": {"dtype": "DT_FLOAT", "tensorShape": {"dim": [{"size": "1"}, {"size": "1"}, {"size": "72"}, {"size": "24"}]}}}, "dtype": {"type": "DT_FLOAT"}}}, {"name": "StatefulPartitionedCall/functional_1_1/expanded_conv_1_project_bn_1/batchnorm/sub", "op": "Const", "attr": {"dtype": {"type": "DT_FLOAT"}, "value": {"tensor": {"dtype": "DT_FLOAT", "tensorShape": {"dim": [{"size": "24"}]}}}}}, {"name": "StatefulPartitionedCall/functional_1_1/expanded_conv_2_expand_1/convolution/merged_input", "op": "Const", "attr": {"value": {"tensor": {"dtype": "DT_FLOAT", "tensorShape": {"dim": [{"size": "1"}, {"size": "1"}, {"size": "24"}, {"size": "88"}]}}}, "dtype": {"type": "DT_FLOAT"}}}, {"name": "StatefulPartitionedCall/functional_1_1/expanded_conv_2_expand_bn_1/batchnorm/sub", "op": "Const", "attr": {"value": {"tensor": {"dtype": "DT_FLOAT", "tensorShape": {"dim": [{"size": "88"}]}}}, "dtype": {"type": "DT_FLOAT"}}}, {"name": "StatefulPartitionedCall/functional_1_1/expanded_conv_2_depthwise_1/depthwise/ReadVariableOp", "op": "Const", "attr": {"value": {"tensor": {"dtype": "DT_FLOAT", "tensorShape": {"dim": [{"size": "3"}, {"size": "3"}, {"size": "88"}, {"size": "1"}]}}}, "dtype": {"type": "DT_FLOAT"}}}, {"name": "StatefulPartitionedCall/functional_1_1/expanded_conv_2_depthwise_bn_1/batchnorm/mul", "op": "Const", "attr": {"dtype": {"type": "DT_FLOAT"}, "value": {"tensor": {"dtype": "DT_FLOAT", "tensorShape": {"dim": [{"size": "88"}]}}}}}, {"name": "StatefulPartitionedCall/functional_1_1/expanded_conv_2_depthwise_bn_1/batchnorm/sub", "op": "Const", "attr": {"value": {"tensor": {"dtype": "DT_FLOAT", "tensorShape": {"dim": [{"size": "88"}]}}}, "dtype": {"type": "DT_FLOAT"}}}, {"name": "StatefulPartitionedCall/functional_1_1/expanded_conv_2_project_1/convolution/merged_input", "op": "Const", "attr": {"value": {"tensor": {"dtype": "DT_FLOAT", "tensorShape": {"dim": [{"size": "1"}, {"size": "1"}, {"size": "88"}, {"size": "24"}]}}}, "dtype": {"type": "DT_FLOAT"}}}, {"name": "StatefulPartitionedCall/functional_1_1/expanded_conv_3_expand_1/convolution/merged_input", "op": "Const", "attr": {"value": {"tensor": {"dtype": "DT_FLOAT", "tensorShape": {"dim": [{"size": "1"}, {"size": "1"}, {"size": "24"}, {"size": "96"}]}}}, "dtype": {"type": "DT_FLOAT"}}}, {"name": "StatefulPartitionedCall/functional_1_1/expanded_conv_3_expand_bn_1/batchnorm/sub", "op": "Const", "attr": {"dtype": {"type": "DT_FLOAT"}, "value": {"tensor": {"dtype": "DT_FLOAT", "tensorShape": {"dim": [{"size": "96"}]}}}}}, {"name": "StatefulPartitionedCall/functional_1_1/activation_1_2/Const", "op": "Const", "attr": {"dtype": {"type": "DT_FLOAT"}, "value": {"tensor": {"dtype": "DT_FLOAT", "tensorShape": {}}}}}, {"name": "StatefulPartitionedCall/functional_1_1/expanded_conv_3_depthwise_pad_1/Const", "op": "Const", "attr": {"value": {"tensor": {"dtype": "DT_INT32", "tensorShape": {"dim": [{"size": "4"}, {"size": "2"}]}}}, "dtype": {"type": "DT_INT32"}}}, {"name": "StatefulPartitionedCall/functional_1_1/expanded_conv_3_depthwise_1/depthwise/ReadVariableOp", "op": "Const", "attr": {"value": {"tensor": {"dtype": "DT_FLOAT", "tensorShape": {"dim": [{"size": "5"}, {"size": "5"}, {"size": "96"}, {"size": "1"}]}}}, "dtype": {"type": "DT_FLOAT"}}}, {"name": "StatefulPartitionedCall/functional_1_1/expanded_conv_3_depthwise_bn_1/batchnorm/mul", "op": "Const", "attr": {"dtype": {"type": "DT_FLOAT"}, "value": {"tensor": {"dtype": "DT_FLOAT", "tensorShape": {"dim": [{"size": "96"}]}}}}}, {"name": "StatefulPartitionedCall/functional_1_1/expanded_conv_3_depthwise_bn_1/batchnorm/sub", "op": "Const", "attr": {"value": {"tensor": {"dtype": "DT_FLOAT", "tensorShape": {"dim": [{"size": "96"}]}}}, "dtype": {"type": "DT_FLOAT"}}}, {"name": "StatefulPartitionedCall/functional_1_1/activation_2_1/Const", "op": "Const", "attr": {"dtype": {"type": "DT_FLOAT"}, "value": {"tensor": {"dtype": "DT_FLOAT", "tensorShape": {}}}}}, {"name": "StatefulPartitionedCall/functional_1_1/expanded_conv_3_project_1/convolution/merged_input", "op": "Const", "attr": {"value": {"tensor": {"dtype": "DT_FLOAT", "tensorShape": {"dim": [{"size": "1"}, {"size": "1"}, {"size": "96"}, {"size": "40"}]}}}, "dtype": {"type": "DT_FLOAT"}}}, {"name": "StatefulPartitionedCall/functional_1_1/expanded_conv_3_project_bn_1/batchnorm/sub", "op": "Const", "attr": {"dtype": {"type": "DT_FLOAT"}, "value": {"tensor": {"dtype": "DT_FLOAT", "tensorShape": {"dim": [{"size": "40"}]}}}}}, {"name": "StatefulPartitionedCall/functional_1_1/expanded_conv_4_expand_1/convolution/merged_input", "op": "Const", "attr": {"dtype": {"type": "DT_FLOAT"}, "value": {"tensor": {"dtype": "DT_FLOAT", "tensorShape": {"dim": [{"size": "1"}, {"size": "1"}, {"size": "40"}, {"size": "240"}]}}}}}, {"name": "StatefulPartitionedCall/functional_1_1/expanded_conv_4_expand_bn_1/batchnorm/sub", "op": "Const", "attr": {"dtype": {"type": "DT_FLOAT"}, "value": {"tensor": {"dtype": "DT_FLOAT", "tensorShape": {"dim": [{"size": "240"}]}}}}}, {"name": "StatefulPartitionedCall/functional_1_1/activation_3_1/Const", "op": "Const", "attr": {"dtype": {"type": "DT_FLOAT"}, "value": {"tensor": {"dtype": "DT_FLOAT", "tensorShape": {}}}}}, {"name": "StatefulPartitionedCall/functional_1_1/expanded_conv_4_depthwise_1/depthwise/ReadVariableOp", "op": "Const", "attr": {"value": {"tensor": {"dtype": "DT_FLOAT", "tensorShape": {"dim": [{"size": "5"}, {"size": "5"}, {"size": "240"}, {"size": "1"}]}}}, "dtype": {"type": "DT_FLOAT"}}}, {"name": "StatefulPartitionedCall/functional_1_1/expanded_conv_4_depthwise_bn_1/batchnorm/mul", "op": "Const", "attr": {"value": {"tensor": {"dtype": "DT_FLOAT", "tensorShape": {"dim": [{"size": "240"}]}}}, "dtype": {"type": "DT_FLOAT"}}}, {"name": "StatefulPartitionedCall/functional_1_1/expanded_conv_4_depthwise_bn_1/batchnorm/sub", "op": "Const", "attr": {"value": {"tensor": {"dtype": "DT_FLOAT", "tensorShape": {"dim": [{"size": "240"}]}}}, "dtype": {"type": "DT_FLOAT"}}}, {"name": "StatefulPartitionedCall/functional_1_1/activation_4_1/Const", "op": "Const", "attr": {"value": {"tensor": {"dtype": "DT_FLOAT", "tensorShape": {}}}, "dtype": {"type": "DT_FLOAT"}}}, {"name": "StatefulPartitionedCall/functional_1_1/expanded_conv_4_project_1/convolution/merged_input", "op": "Const", "attr": {"value": {"tensor": {"dtype": "DT_FLOAT", "tensorShape": {"dim": [{"size": "1"}, {"size": "1"}, {"size": "240"}, {"size": "40"}]}}}, "dtype": {"type": "DT_FLOAT"}}}, {"name": "StatefulPartitionedCall/functional_1_1/expanded_conv_5_expand_1/convolution/merged_input", "op": "Const", "attr": {"value": {"tensor": {"dtype": "DT_FLOAT", "tensorShape": {"dim": [{"size": "1"}, {"size": "1"}, {"size": "40"}, {"size": "240"}]}}}, "dtype": {"type": "DT_FLOAT"}}}, {"name": "StatefulPartitionedCall/functional_1_1/expanded_conv_5_expand_bn_1/batchnorm/sub", "op": "Const", "attr": {"dtype": {"type": "DT_FLOAT"}, "value": {"tensor": {"dtype": "DT_FLOAT", "tensorShape": {"dim": [{"size": "240"}]}}}}}, {"name": "StatefulPartitionedCall/functional_1_1/activation_5_1/Const", "op": "Const", "attr": {"dtype": {"type": "DT_FLOAT"}, "value": {"tensor": {"dtype": "DT_FLOAT", "tensorShape": {}}}}}, {"name": "StatefulPartitionedCall/functional_1_1/expanded_conv_5_depthwise_1/depthwise/ReadVariableOp", "op": "Const", "attr": {"dtype": {"type": "DT_FLOAT"}, "value": {"tensor": {"dtype": "DT_FLOAT", "tensorShape": {"dim": [{"size": "5"}, {"size": "5"}, {"size": "240"}, {"size": "1"}]}}}}}, {"name": "StatefulPartitionedCall/functional_1_1/expanded_conv_5_depthwise_bn_1/batchnorm/mul", "op": "Const", "attr": {"value": {"tensor": {"dtype": "DT_FLOAT", "tensorShape": {"dim": [{"size": "240"}]}}}, "dtype": {"type": "DT_FLOAT"}}}, {"name": "StatefulPartitionedCall/functional_1_1/expanded_conv_5_depthwise_bn_1/batchnorm/sub", "op": "Const", "attr": {"dtype": {"type": "DT_FLOAT"}, "value": {"tensor": {"dtype": "DT_FLOAT", "tensorShape": {"dim": [{"size": "240"}]}}}}}, {"name": "StatefulPartitionedCall/functional_1_1/activation_6_1/Const", "op": "Const", "attr": {"value": {"tensor": {"dtype": "DT_FLOAT", "tensorShape": {}}}, "dtype": {"type": "DT_FLOAT"}}}, {"name": "StatefulPartitionedCall/functional_1_1/expanded_conv_5_project_1/convolution/merged_input", "op": "Const", "attr": {"value": {"tensor": {"dtype": "DT_FLOAT", "tensorShape": {"dim": [{"size": "1"}, {"size": "1"}, {"size": "240"}, {"size": "40"}]}}}, "dtype": {"type": "DT_FLOAT"}}}, {"name": "StatefulPartitionedCall/functional_1_1/expanded_conv_6_expand_1/convolution/merged_input", "op": "Const", "attr": {"dtype": {"type": "DT_FLOAT"}, "value": {"tensor": {"dtype": "DT_FLOAT", "tensorShape": {"dim": [{"size": "1"}, {"size": "1"}, {"size": "40"}, {"size": "120"}]}}}}}, {"name": "StatefulPartitionedCall/functional_1_1/expanded_conv_6_expand_bn_1/batchnorm/sub", "op": "Const", "attr": {"value": {"tensor": {"dtype": "DT_FLOAT", "tensorShape": {"dim": [{"size": "120"}]}}}, "dtype": {"type": "DT_FLOAT"}}}, {"name": "StatefulPartitionedCall/functional_1_1/activation_7_1/Const", "op": "Const", "attr": {"value": {"tensor": {"dtype": "DT_FLOAT", "tensorShape": {}}}, "dtype": {"type": "DT_FLOAT"}}}, {"name": "StatefulPartitionedCall/functional_1_1/expanded_conv_6_depthwise_1/depthwise/ReadVariableOp", "op": "Const", "attr": {"value": {"tensor": {"dtype": "DT_FLOAT", "tensorShape": {"dim": [{"size": "5"}, {"size": "5"}, {"size": "120"}, {"size": "1"}]}}}, "dtype": {"type": "DT_FLOAT"}}}, {"name": "StatefulPartitionedCall/functional_1_1/expanded_conv_6_depthwise_bn_1/batchnorm/mul", "op": "Const", "attr": {"dtype": {"type": "DT_FLOAT"}, "value": {"tensor": {"dtype": "DT_FLOAT", "tensorShape": {"dim": [{"size": "120"}]}}}}}, {"name": "StatefulPartitionedCall/functional_1_1/expanded_conv_6_depthwise_bn_1/batchnorm/sub", "op": "Const", "attr": {"value": {"tensor": {"dtype": "DT_FLOAT", "tensorShape": {"dim": [{"size": "120"}]}}}, "dtype": {"type": "DT_FLOAT"}}}, {"name": "StatefulPartitionedCall/functional_1_1/activation_8_1/Const", "op": "Const", "attr": {"dtype": {"type": "DT_FLOAT"}, "value": {"tensor": {"dtype": "DT_FLOAT", "tensorShape": {}}}}}, {"name": "StatefulPartitionedCall/functional_1_1/expanded_conv_6_project_1/convolution/merged_input", "op": "Const", "attr": {"value": {"tensor": {"dtype": "DT_FLOAT", "tensorShape": {"dim": [{"size": "1"}, {"size": "1"}, {"size": "120"}, {"size": "48"}]}}}, "dtype": {"type": "DT_FLOAT"}}}, {"name": "StatefulPartitionedCall/functional_1_1/expanded_conv_6_project_bn_1/batchnorm/sub", "op": "Const", "attr": {"dtype": {"type": "DT_FLOAT"}, "value": {"tensor": {"dtype": "DT_FLOAT", "tensorShape": {"dim": [{"size": "48"}]}}}}}, {"name": "StatefulPartitionedCall/functional_1_1/expanded_conv_7_expand_1/convolution/merged_input", "op": "Const", "attr": {"dtype": {"type": "DT_FLOAT"}, "value": {"tensor": {"dtype": "DT_FLOAT", "tensorShape": {"dim": [{"size": "1"}, {"size": "1"}, {"size": "48"}, {"size": "144"}]}}}}}, {"name": "StatefulPartitionedCall/functional_1_1/expanded_conv_7_expand_bn_1/batchnorm/sub", "op": "Const", "attr": {"dtype": {"type": "DT_FLOAT"}, "value": {"tensor": {"dtype": "DT_FLOAT", "tensorShape": {"dim": [{"size": "144"}]}}}}}, {"name": "StatefulPartitionedCall/functional_1_1/activation_9_1/Const", "op": "Const", "attr": {"value": {"tensor": {"dtype": "DT_FLOAT", "tensorShape": {}}}, "dtype": {"type": "DT_FLOAT"}}}, {"name": "StatefulPartitionedCall/functional_1_1/expanded_conv_7_depthwise_1/depthwise/ReadVariableOp", "op": "Const", "attr": {"value": {"tensor": {"dtype": "DT_FLOAT", "tensorShape": {"dim": [{"size": "5"}, {"size": "5"}, {"size": "144"}, {"size": "1"}]}}}, "dtype": {"type": "DT_FLOAT"}}}, {"name": "StatefulPartitionedCall/functional_1_1/expanded_conv_7_depthwise_bn_1/batchnorm/mul", "op": "Const", "attr": {"dtype": {"type": "DT_FLOAT"}, "value": {"tensor": {"dtype": "DT_FLOAT", "tensorShape": {"dim": [{"size": "144"}]}}}}}, {"name": "StatefulPartitionedCall/functional_1_1/expanded_conv_7_depthwise_bn_1/batchnorm/sub", "op": "Const", "attr": {"value": {"tensor": {"dtype": "DT_FLOAT", "tensorShape": {"dim": [{"size": "144"}]}}}, "dtype": {"type": "DT_FLOAT"}}}, {"name": "StatefulPartitionedCall/functional_1_1/activation_10_1/Const", "op": "Const", "attr": {"value": {"tensor": {"dtype": "DT_FLOAT", "tensorShape": {}}}, "dtype": {"type": "DT_FLOAT"}}}, {"name": "StatefulPartitionedCall/functional_1_1/expanded_conv_7_project_1/convolution/merged_input", "op": "Const", "attr": {"dtype": {"type": "DT_FLOAT"}, "value": {"tensor": {"dtype": "DT_FLOAT", "tensorShape": {"dim": [{"size": "1"}, {"size": "1"}, {"size": "144"}, {"size": "48"}]}}}}}, {"name": "StatefulPartitionedCall/functional_1_1/expanded_conv_8_expand_1/convolution/merged_input", "op": "Const", "attr": {"dtype": {"type": "DT_FLOAT"}, "value": {"tensor": {"dtype": "DT_FLOAT", "tensorShape": {"dim": [{"size": "1"}, {"size": "1"}, {"size": "48"}, {"size": "288"}]}}}}}, {"name": "StatefulPartitionedCall/functional_1_1/expanded_conv_8_expand_bn_1/batchnorm/sub", "op": "Const", "attr": {"dtype": {"type": "DT_FLOAT"}, "value": {"tensor": {"dtype": "DT_FLOAT", "tensorShape": {"dim": [{"size": "288"}]}}}}}, {"name": "StatefulPartitionedCall/functional_1_1/activation_11_1/Const", "op": "Const", "attr": {"dtype": {"type": "DT_FLOAT"}, "value": {"tensor": {"dtype": "DT_FLOAT", "tensorShape": {}}}}}, {"name": "StatefulPartitionedCall/functional_1_1/expanded_conv_8_depthwise_pad_1/Const", "op": "Const", "attr": {"value": {"tensor": {"dtype": "DT_INT32", "tensorShape": {"dim": [{"size": "4"}, {"size": "2"}]}}}, "dtype": {"type": "DT_INT32"}}}, {"name": "StatefulPartitionedCall/functional_1_1/expanded_conv_8_depthwise_1/depthwise/ReadVariableOp", "op": "Const", "attr": {"dtype": {"type": "DT_FLOAT"}, "value": {"tensor": {"dtype": "DT_FLOAT", "tensorShape": {"dim": [{"size": "5"}, {"size": "5"}, {"size": "288"}, {"size": "1"}]}}}}}, {"name": "StatefulPartitionedCall/functional_1_1/expanded_conv_8_depthwise_bn_1/batchnorm/mul", "op": "Const", "attr": {"dtype": {"type": "DT_FLOAT"}, "value": {"tensor": {"dtype": "DT_FLOAT", "tensorShape": {"dim": [{"size": "288"}]}}}}}, {"name": "StatefulPartitionedCall/functional_1_1/expanded_conv_8_depthwise_bn_1/batchnorm/sub", "op": "Const", "attr": {"value": {"tensor": {"dtype": "DT_FLOAT", "tensorShape": {"dim": [{"size": "288"}]}}}, "dtype": {"type": "DT_FLOAT"}}}, {"name": "StatefulPartitionedCall/functional_1_1/activation_12_1/Const", "op": "Const", "attr": {"value": {"tensor": {"dtype": "DT_FLOAT", "tensorShape": {}}}, "dtype": {"type": "DT_FLOAT"}}}, {"name": "StatefulPartitionedCall/functional_1_1/expanded_conv_8_project_1/convolution/merged_input", "op": "Const", "attr": {"dtype": {"type": "DT_FLOAT"}, "value": {"tensor": {"dtype": "DT_FLOAT", "tensorShape": {"dim": [{"size": "1"}, {"size": "1"}, {"size": "288"}, {"size": "96"}]}}}}}, {"name": "StatefulPartitionedCall/functional_1_1/expanded_conv_8_project_bn_1/batchnorm/sub", "op": "Const", "attr": {"dtype": {"type": "DT_FLOAT"}, "value": {"tensor": {"dtype": "DT_FLOAT", "tensorShape": {"dim": [{"size": "96"}]}}}}}, {"name": "StatefulPartitionedCall/functional_1_1/expanded_conv_9_expand_1/convolution/merged_input", "op": "Const", "attr": {"value": {"tensor": {"dtype": "DT_FLOAT", "tensorShape": {"dim": [{"size": "1"}, {"size": "1"}, {"size": "96"}, {"size": "576"}]}}}, "dtype": {"type": "DT_FLOAT"}}}, {"name": "StatefulPartitionedCall/functional_1_1/expanded_conv_9_expand_bn_1/batchnorm/sub", "op": "Const", "attr": {"value": {"tensor": {"dtype": "DT_FLOAT", "tensorShape": {"dim": [{"size": "576"}]}}}, "dtype": {"type": "DT_FLOAT"}}}, {"name": "StatefulPartitionedCall/functional_1_1/activation_13_1/Const", "op": "Const", "attr": {"value": {"tensor": {"dtype": "DT_FLOAT", "tensorShape": {}}}, "dtype": {"type": "DT_FLOAT"}}}, {"name": "StatefulPartitionedCall/functional_1_1/expanded_conv_9_depthwise_1/depthwise/ReadVariableOp", "op": "Const", "attr": {"value": {"tensor": {"dtype": "DT_FLOAT", "tensorShape": {"dim": [{"size": "5"}, {"size": "5"}, {"size": "576"}, {"size": "1"}]}}}, "dtype": {"type": "DT_FLOAT"}}}, {"name": "StatefulPartitionedCall/functional_1_1/expanded_conv_9_depthwise_bn_1/batchnorm/mul", "op": "Const", "attr": {"dtype": {"type": "DT_FLOAT"}, "value": {"tensor": {"dtype": "DT_FLOAT", "tensorShape": {"dim": [{"size": "576"}]}}}}}, {"name": "StatefulPartitionedCall/functional_1_1/expanded_conv_9_depthwise_bn_1/batchnorm/sub", "op": "Const", "attr": {"value": {"tensor": {"dtype": "DT_FLOAT", "tensorShape": {"dim": [{"size": "576"}]}}}, "dtype": {"type": "DT_FLOAT"}}}, {"name": "StatefulPartitionedCall/functional_1_1/activation_14_1/Const", "op": "Const", "attr": {"dtype": {"type": "DT_FLOAT"}, "value": {"tensor": {"dtype": "DT_FLOAT", "tensorShape": {}}}}}, {"name": "StatefulPartitionedCall/functional_1_1/expanded_conv_9_project_1/convolution/merged_input", "op": "Const", "attr": {"value": {"tensor": {"dtype": "DT_FLOAT", "tensorShape": {"dim": [{"size": "1"}, {"size": "1"}, {"size": "576"}, {"size": "96"}]}}}, "dtype": {"type": "DT_FLOAT"}}}, {"name": "StatefulPartitionedCall/functional_1_1/expanded_conv_10_expand_1/convolution/merged_input", "op": "Const", "attr": {"value": {"tensor": {"dtype": "DT_FLOAT", "tensorShape": {"dim": [{"size": "1"}, {"size": "1"}, {"size": "96"}, {"size": "576"}]}}}, "dtype": {"type": "DT_FLOAT"}}}, {"name": "StatefulPartitionedCall/functional_1_1/expanded_conv_10_expand_bn_1/batchnorm/sub", "op": "Const", "attr": {"value": {"tensor": {"dtype": "DT_FLOAT", "tensorShape": {"dim": [{"size": "576"}]}}}, "dtype": {"type": "DT_FLOAT"}}}, {"name": "StatefulPartitionedCall/functional_1_1/activation_15_1/Const", "op": "Const", "attr": {"value": {"tensor": {"dtype": "DT_FLOAT", "tensorShape": {}}}, "dtype": {"type": "DT_FLOAT"}}}, {"name": "StatefulPartitionedCall/functional_1_1/expanded_conv_10_depthwise_1/depthwise/ReadVariableOp", "op": "Const", "attr": {"value": {"tensor": {"dtype": "DT_FLOAT", "tensorShape": {"dim": [{"size": "5"}, {"size": "5"}, {"size": "576"}, {"size": "1"}]}}}, "dtype": {"type": "DT_FLOAT"}}}, {"name": "StatefulPartitionedCall/functional_1_1/expanded_conv_10_depthwise_bn_1/batchnorm/mul", "op": "Const", "attr": {"dtype": {"type": "DT_FLOAT"}, "value": {"tensor": {"dtype": "DT_FLOAT", "tensorShape": {"dim": [{"size": "576"}]}}}}}, {"name": "StatefulPartitionedCall/functional_1_1/expanded_conv_10_depthwise_bn_1/batchnorm/sub", "op": "Const", "attr": {"value": {"tensor": {"dtype": "DT_FLOAT", "tensorShape": {"dim": [{"size": "576"}]}}}, "dtype": {"type": "DT_FLOAT"}}}, {"name": "StatefulPartitionedCall/functional_1_1/activation_16_1/Const", "op": "Const", "attr": {"dtype": {"type": "DT_FLOAT"}, "value": {"tensor": {"dtype": "DT_FLOAT", "tensorShape": {}}}}}, {"name": "StatefulPartitionedCall/functional_1_1/expanded_conv_10_project_1/convolution/merged_input", "op": "Const", "attr": {"value": {"tensor": {"dtype": "DT_FLOAT", "tensorShape": {"dim": [{"size": "1"}, {"size": "1"}, {"size": "576"}, {"size": "96"}]}}}, "dtype": {"type": "DT_FLOAT"}}}, {"name": "StatefulPartitionedCall/functional_1_1/conv_1_2/convolution/merged_input", "op": "Const", "attr": {"value": {"tensor": {"dtype": "DT_FLOAT", "tensorShape": {"dim": [{"size": "1"}, {"size": "1"}, {"size": "96"}, {"size": "576"}]}}}, "dtype": {"type": "DT_FLOAT"}}}, {"name": "StatefulPartitionedCall/functional_1_1/conv_1_bn_1/batchnorm/sub", "op": "Const", "attr": {"dtype": {"type": "DT_FLOAT"}, "value": {"tensor": {"dtype": "DT_FLOAT", "tensorShape": {"dim": [{"size": "576"}]}}}}}, {"name": "StatefulPartitionedCall/functional_1_1/activation_17_1/Const", "op": "Const", "attr": {"value": {"tensor": {"dtype": "DT_FLOAT", "tensorShape": {}}}, "dtype": {"type": "DT_FLOAT"}}}, {"name": "StatefulPartitionedCall/functional_1_1/global_average_pooling2d_1/Mean/reduction_indices", "op": "Const", "attr": {"value": {"tensor": {"dtype": "DT_INT32", "tensorShape": {"dim": [{"size": "2"}]}}}, "dtype": {"type": "DT_INT32"}}}, {"name": "StatefulPartitionedCall/functional_1_1/conv_2_1/convolution/ReadVariableOp", "op": "Const", "attr": {"value": {"tensor": {"dtype": "DT_FLOAT", "tensorShape": {"dim": [{"size": "1"}, {"size": "1"}, {"size": "576"}, {"size": "1024"}]}}}, "dtype": {"type": "DT_FLOAT"}}}, {"name": "StatefulPartitionedCall/functional_1_1/conv_2_1/Reshape", "op": "Const", "attr": {"value": {"tensor": {"dtype": "DT_FLOAT", "tensorShape": {"dim": [{"size": "1"}, {"size": "1"}, {"size": "1"}, {"size": "1024"}]}}}, "dtype": {"type": "DT_FLOAT"}}}, {"name": "StatefulPartitionedCall/functional_1_1/activation_18_1/Const", "op": "Const", "attr": {"value": {"tensor": {"dtype": "DT_FLOAT", "tensorShape": {}}}, "dtype": {"type": "DT_FLOAT"}}}, {"name": "StatefulPartitionedCall/functional_1_1/logits_1/convolution/ReadVariableOp", "op": "Const", "attr": {"value": {"tensor": {"dtype": "DT_FLOAT", "tensorShape": {"dim": [{"size": "1"}, {"size": "1"}, {"size": "1024"}, {"size": "1000"}]}}}, "dtype": {"type": "DT_FLOAT"}}}, {"name": "StatefulPartitionedCall/functional_1_1/logits_1/Reshape", "op": "Const", "attr": {"value": {"tensor": {"dtype": "DT_FLOAT", "tensorShape": {"dim": [{"size": "1"}, {"size": "1"}, {"size": "1"}, {"size": "1000"}]}}}, "dtype": {"type": "DT_FLOAT"}}}, {"name": "StatefulPartitionedCall/functional_1_1/flatten_1/Reshape/shape", "op": "Const", "attr": {"value": {"tensor": {"dtype": "DT_INT32", "tensorShape": {"dim": [{"size": "2"}]}}}, "dtype": {"type": "DT_INT32"}}}, {"name": "StatefulPartitionedCall/functional_1_1/dense_1/Cast/ReadVariableOp", "op": "Const", "attr": {"value": {"tensor": {"dtype": "DT_FLOAT", "tensorShape": {"dim": [{"size": "1000"}, {"size": "7"}]}}}, "dtype": {"type": "DT_FLOAT"}}}, {"name": "StatefulPartitionedCall/functional_1_1/dense_1/Add/ReadVariableOp", "op": "Const", "attr": {"value": {"tensor": {"dtype": "DT_FLOAT", "tensorShape": {"dim": [{"size": "7"}]}}}, "dtype": {"type": "DT_FLOAT"}}}, {"name": "inputs", "op": "Placeholder", "attr": {"dtype": {"type": "DT_FLOAT"}, "shape": {"shape": {"dim": [{"size": "-1"}, {"size": "-1"}, {"size": "-1"}, {"size": "3"}]}}}}, {"name": "StatefulPartitionedCall/functional_1_1/rescaling_1/mul", "op": "Mul", "input": ["inputs", "StatefulPartitionedCall/functional_1_1/rescaling_1/Cast/x"], "attr": {"T": {"type": "DT_FLOAT"}}}, {"name": "StatefulPartitionedCall/functional_1_1/rescaling_1/add", "op": "AddV2", "input": ["StatefulPartitionedCall/functional_1_1/rescaling_1/mul", "StatefulPartitionedCall/functional_1_1/rescaling_1/Cast_1/x"], "attr": {"T": {"type": "DT_FLOAT"}}}, {"name": "StatefulPartitionedCall/functional_1_1/conv_bn_1/batchnorm/add_1", "op": "_FusedConv2D", "input": ["StatefulPartitionedCall/functional_1_1/rescaling_1/add", "StatefulPartitionedCall/functional_1_1/conv_1/convolution/merged_input", "StatefulPartitionedCall/functional_1_1/conv_bn_1/batchnorm/sub"], "device": "/device:CPU:0", "attr": {"num_args": {"i": "1"}, "padding": {"s": "U0FNRQ=="}, "epsilon": {"f": 0.0}, "strides": {"list": {"i": ["1", "2", "2", "1"]}}, "explicit_paddings": {"list": {}}, "fused_ops": {"list": {"s": ["Qmlhc0FkZA=="]}}, "TArgs": {"list": {"type": ["DT_FLOAT"]}}, "leakyrelu_alpha": {"f": 0.2}, "filter_format": {"s": "SFdJTw=="}, "T": {"type": "DT_FLOAT"}, "data_format": {"s": "TkhXQw=="}, "num_host_args": {"i": "0"}, "dilations": {"list": {"i": ["1", "1", "1", "1"]}}, "use_cudnn_on_gpu": {"b": true}}}, {"name": "StatefulPartitionedCall/functional_1_1/activation_1/truediv", "op": "Mul", "input": ["ConstantFolding/StatefulPartitionedCall/functional_1_1/activation_1/truediv_recip", "StatefulPartitionedCall/functional_1_1/conv_bn_1/batchnorm/add_1"], "attr": {"T": {"type": "DT_FLOAT"}, "_grappler_ArithmeticOptimizer_MinimizeBroadcasts": {"b": true}}}, {"name": "StatefulPartitionedCall/functional_1_1/activation_1/add", "op": "AddV2", "input": ["StatefulPartitionedCall/functional_1_1/conv_bn_1/batchnorm/add_1", "StatefulPartitionedCall/functional_1_1/activation_1/Const"], "attr": {"T": {"type": "DT_FLOAT"}}}, {"name": "StatefulPartitionedCall/functional_1_1/activation_1/Relu6", "op": "Relu6", "input": ["StatefulPartitionedCall/functional_1_1/activation_1/add"], "attr": {"T": {"type": "DT_FLOAT"}}}, {"name": "StatefulPartitionedCall/functional_1_1/activation_1/mul", "op": "Mul", "input": ["StatefulPartitionedCall/functional_1_1/activation_1/truediv", "StatefulPartitionedCall/functional_1_1/activation_1/Relu6"], "attr": {"_grappler_ArithmeticOptimizer_MinimizeBroadcasts": {"b": true}, "T": {"type": "DT_FLOAT"}}}, {"name": "StatefulPartitionedCall/functional_1_1/expanded_conv_depthwise_pad_1/Pad", "op": "Pad", "input": ["StatefulPartitionedCall/functional_1_1/activation_1/mul", "StatefulPartitionedCall/functional_1_1/expanded_conv_depthwise_pad_1/Const"], "attr": {"T": {"type": "DT_FLOAT"}, "Tpaddings": {"type": "DT_INT32"}}}, {"name": "StatefulPartitionedCall/functional_1_1/expanded_conv_depthwise_1/depthwise", "op": "DepthwiseConv2dNative", "input": ["StatefulPartitionedCall/functional_1_1/expanded_conv_depthwise_pad_1/Pad", "StatefulPartitionedCall/functional_1_1/expanded_conv_depthwise_1/depthwise/ReadVariableOp"], "attr": {"T": {"type": "DT_FLOAT"}, "padding": {"s": "VkFMSUQ="}, "dilations": {"list": {"i": ["1", "1", "1", "1"]}}, "data_format": {"s": "TkhXQw=="}, "explicit_paddings": {"list": {}}, "strides": {"list": {"i": ["1", "2", "2", "1"]}}}}, {"name": "StatefulPartitionedCall/functional_1_1/expanded_conv_depthwise_bn_1/batchnorm/mul_1", "op": "Mul", "input": ["StatefulPartitionedCall/functional_1_1/expanded_conv_depthwise_1/depthwise", "StatefulPartitionedCall/functional_1_1/expanded_conv_depthwise_bn_1/batchnorm/mul"], "attr": {"T": {"type": "DT_FLOAT"}}}, {"name": "StatefulPartitionedCall/functional_1_1/expanded_conv_depthwise_bn_1/batchnorm/add_1", "op": "AddV2", "input": ["StatefulPartitionedCall/functional_1_1/expanded_conv_depthwise_bn_1/batchnorm/mul_1", "StatefulPartitionedCall/functional_1_1/expanded_conv_depthwise_bn_1/batchnorm/sub"], "attr": {"T": {"type": "DT_FLOAT"}}}, {"name": "StatefulPartitionedCall/functional_1_1/re_lu_1/Relu", "op": "Relu", "input": ["StatefulPartitionedCall/functional_1_1/expanded_conv_depthwise_bn_1/batchnorm/add_1"], "attr": {"T": {"type": "DT_FLOAT"}}}, {"name": "StatefulPartitionedCall/functional_1_1/expanded_conv_squeeze_excite_avg_pool_1/Mean", "op": "Mean", "input": ["StatefulPartitionedCall/functional_1_1/re_lu_1/Relu", "StatefulPartitionedCall/functional_1_1/expanded_conv_squeeze_excite_avg_pool_1/Mean/reduction_indices"], "attr": {"keep_dims": {"b": true}, "T": {"type": "DT_FLOAT"}, "Tidx": {"type": "DT_INT32"}}}, {"name": "StatefulPartitionedCall/functional_1_1/expanded_conv_squeeze_excite_relu_1/Relu", "op": "_FusedConv2D", "input": ["StatefulPartitionedCall/functional_1_1/expanded_conv_squeeze_excite_avg_pool_1/Mean", "StatefulPartitionedCall/functional_1_1/expanded_conv_squeeze_excite_conv_1/convolution/ReadVariableOp", "StatefulPartitionedCall/functional_1_1/expanded_conv_squeeze_excite_conv_1/Reshape"], "device": "/device:CPU:0", "attr": {"filter_format": {"s": "SFdJTw=="}, "TArgs": {"list": {"type": ["DT_FLOAT"]}}, "num_host_args": {"i": "0"}, "epsilon": {"f": 0.0}, "fused_ops": {"list": {"s": ["Qmlhc0FkZA==", "UmVsdQ=="]}}, "use_cudnn_on_gpu": {"b": true}, "dilations": {"list": {"i": ["1", "1", "1", "1"]}}, "padding": {"s": "U0FNRQ=="}, "num_args": {"i": "1"}, "strides": {"list": {"i": ["1", "1", "1", "1"]}}, "explicit_paddings": {"list": {}}, "T": {"type": "DT_FLOAT"}, "leakyrelu_alpha": {"f": 0.2}, "data_format": {"s": "TkhXQw=="}}}, {"name": "StatefulPartitionedCall/functional_1_1/re_lu_1_2/Relu6", "op": "_FusedConv2D", "input": ["StatefulPartitionedCall/functional_1_1/expanded_conv_squeeze_excite_relu_1/Relu", "StatefulPartitionedCall/functional_1_1/expanded_conv_squeeze_excite_conv_1_2/convolution/ReadVariableOp", "StatefulPartitionedCall/functional_1_1/expanded_conv_squeeze_excite_conv_1_2/add"], "device": "/device:CPU:0", "attr": {"padding": {"s": "U0FNRQ=="}, "strides": {"list": {"i": ["1", "1", "1", "1"]}}, "filter_format": {"s": "SFdJTw=="}, "num_args": {"i": "1"}, "fused_ops": {"list": {"s": ["Qmlhc0FkZA==", "UmVsdTY="]}}, "explicit_paddings": {"list": {}}, "data_format": {"s": "TkhXQw=="}, "num_host_args": {"i": "0"}, "epsilon": {"f": 0.0}, "leakyrelu_alpha": {"f": 0.2}, "TArgs": {"list": {"type": ["DT_FLOAT"]}}, "use_cudnn_on_gpu": {"b": true}, "dilations": {"list": {"i": ["1", "1", "1", "1"]}}, "T": {"type": "DT_FLOAT"}}}, {"name": "StatefulPartitionedCall/functional_1_1/Mul", "op": "Mul", "input": ["StatefulPartitionedCall/functional_1_1/Const_1", "StatefulPartitionedCall/functional_1_1/re_lu_1_2/Relu6"], "attr": {"T": {"type": "DT_FLOAT"}, "_grappler_ArithmeticOptimizer_MinimizeBroadcasts": {"b": true}}}, {"name": "StatefulPartitionedCall/functional_1_1/expanded_conv_squeeze_excite_mul_1/Mul", "op": "Mul", "input": ["StatefulPartitionedCall/functional_1_1/Mul", "StatefulPartitionedCall/functional_1_1/re_lu_1/Relu"], "attr": {"_grappler_ArithmeticOptimizer_MinimizeBroadcasts": {"b": true}, "T": {"type": "DT_FLOAT"}}}, {"name": "StatefulPartitionedCall/functional_1_1/expanded_conv_project_bn_1/batchnorm/add_1", "op": "_FusedConv2D", "input": ["StatefulPartitionedCall/functional_1_1/expanded_conv_squeeze_excite_mul_1/Mul", "StatefulPartitionedCall/functional_1_1/expanded_conv_project_1/convolution/merged_input", "StatefulPartitionedCall/functional_1_1/expanded_conv_project_bn_1/batchnorm/sub"], "device": "/device:CPU:0", "attr": {"dilations": {"list": {"i": ["1", "1", "1", "1"]}}, "leakyrelu_alpha": {"f": 0.2}, "filter_format": {"s": "SFdJTw=="}, "TArgs": {"list": {"type": ["DT_FLOAT"]}}, "T": {"type": "DT_FLOAT"}, "data_format": {"s": "TkhXQw=="}, "explicit_paddings": {"list": {}}, "use_cudnn_on_gpu": {"b": true}, "num_args": {"i": "1"}, "epsilon": {"f": 0.0}, "fused_ops": {"list": {"s": ["Qmlhc0FkZA=="]}}, "num_host_args": {"i": "0"}, "strides": {"list": {"i": ["1", "1", "1", "1"]}}, "padding": {"s": "U0FNRQ=="}}}, {"name": "StatefulPartitionedCall/functional_1_1/re_lu_2_1/Relu", "op": "_FusedConv2D", "input": ["StatefulPartitionedCall/functional_1_1/expanded_conv_project_bn_1/batchnorm/add_1", "StatefulPartitionedCall/functional_1_1/expanded_conv_1_expand_1/convolution/merged_input", "StatefulPartitionedCall/functional_1_1/expanded_conv_1_expand_bn_1/batchnorm/sub"], "device": "/device:CPU:0", "attr": {"use_cudnn_on_gpu": {"b": true}, "explicit_paddings": {"list": {}}, "num_host_args": {"i": "0"}, "dilations": {"list": {"i": ["1", "1", "1", "1"]}}, "TArgs": {"list": {"type": ["DT_FLOAT"]}}, "epsilon": {"f": 0.0}, "T": {"type": "DT_FLOAT"}, "strides": {"list": {"i": ["1", "1", "1", "1"]}}, "data_format": {"s": "TkhXQw=="}, "fused_ops": {"list": {"s": ["Qmlhc0FkZA==", "UmVsdQ=="]}}, "filter_format": {"s": "SFdJTw=="}, "padding": {"s": "U0FNRQ=="}, "num_args": {"i": "1"}, "leakyrelu_alpha": {"f": 0.2}}}, {"name": "StatefulPartitionedCall/functional_1_1/expanded_conv_1_depthwise_pad_1/Pad", "op": "Pad", "input": ["StatefulPartitionedCall/functional_1_1/re_lu_2_1/Relu", "StatefulPartitionedCall/functional_1_1/expanded_conv_1_depthwise_pad_1/Const"], "attr": {"T": {"type": "DT_FLOAT"}, "Tpaddings": {"type": "DT_INT32"}}}, {"name": "StatefulPartitionedCall/functional_1_1/expanded_conv_1_depthwise_1/depthwise", "op": "DepthwiseConv2dNative", "input": ["StatefulPartitionedCall/functional_1_1/expanded_conv_1_depthwise_pad_1/Pad", "StatefulPartitionedCall/functional_1_1/expanded_conv_1_depthwise_1/depthwise/ReadVariableOp"], "attr": {"data_format": {"s": "TkhXQw=="}, "T": {"type": "DT_FLOAT"}, "strides": {"list": {"i": ["1", "2", "2", "1"]}}, "explicit_paddings": {"list": {}}, "padding": {"s": "VkFMSUQ="}, "dilations": {"list": {"i": ["1", "1", "1", "1"]}}}}, {"name": "StatefulPartitionedCall/functional_1_1/expanded_conv_1_depthwise_bn_1/batchnorm/mul_1", "op": "Mul", "input": ["StatefulPartitionedCall/functional_1_1/expanded_conv_1_depthwise_1/depthwise", "StatefulPartitionedCall/functional_1_1/expanded_conv_1_depthwise_bn_1/batchnorm/mul"], "attr": {"T": {"type": "DT_FLOAT"}}}, {"name": "StatefulPartitionedCall/functional_1_1/expanded_conv_1_depthwise_bn_1/batchnorm/add_1", "op": "AddV2", "input": ["StatefulPartitionedCall/functional_1_1/expanded_conv_1_depthwise_bn_1/batchnorm/mul_1", "StatefulPartitionedCall/functional_1_1/expanded_conv_1_depthwise_bn_1/batchnorm/sub"], "attr": {"T": {"type": "DT_FLOAT"}}}, {"name": "StatefulPartitionedCall/functional_1_1/re_lu_3_1/Relu", "op": "Relu", "input": ["StatefulPartitionedCall/functional_1_1/expanded_conv_1_depthwise_bn_1/batchnorm/add_1"], "attr": {"T": {"type": "DT_FLOAT"}}}, {"name": "StatefulPartitionedCall/functional_1_1/expanded_conv_1_project_bn_1/batchnorm/add_1", "op": "_FusedConv2D", "input": ["StatefulPartitionedCall/functional_1_1/re_lu_3_1/Relu", "StatefulPartitionedCall/functional_1_1/expanded_conv_1_project_1/convolution/merged_input", "StatefulPartitionedCall/functional_1_1/expanded_conv_1_project_bn_1/batchnorm/sub"], "device": "/device:CPU:0", "attr": {"strides": {"list": {"i": ["1", "1", "1", "1"]}}, "padding": {"s": "U0FNRQ=="}, "T": {"type": "DT_FLOAT"}, "data_format": {"s": "TkhXQw=="}, "leakyrelu_alpha": {"f": 0.2}, "num_args": {"i": "1"}, "num_host_args": {"i": "0"}, "use_cudnn_on_gpu": {"b": true}, "explicit_paddings": {"list": {}}, "filter_format": {"s": "SFdJTw=="}, "fused_ops": {"list": {"s": ["Qmlhc0FkZA=="]}}, "TArgs": {"list": {"type": ["DT_FLOAT"]}}, "epsilon": {"f": 0.0}, "dilations": {"list": {"i": ["1", "1", "1", "1"]}}}}, {"name": "StatefulPartitionedCall/functional_1_1/re_lu_4_1/Relu", "op": "_FusedConv2D", "input": ["StatefulPartitionedCall/functional_1_1/expanded_conv_1_project_bn_1/batchnorm/add_1", "StatefulPartitionedCall/functional_1_1/expanded_conv_2_expand_1/convolution/merged_input", "StatefulPartitionedCall/functional_1_1/expanded_conv_2_expand_bn_1/batchnorm/sub"], "device": "/device:CPU:0", "attr": {"data_format": {"s": "TkhXQw=="}, "explicit_paddings": {"list": {}}, "TArgs": {"list": {"type": ["DT_FLOAT"]}}, "leakyrelu_alpha": {"f": 0.2}, "num_args": {"i": "1"}, "filter_format": {"s": "SFdJTw=="}, "T": {"type": "DT_FLOAT"}, "num_host_args": {"i": "0"}, "fused_ops": {"list": {"s": ["Qmlhc0FkZA==", "UmVsdQ=="]}}, "padding": {"s": "U0FNRQ=="}, "dilations": {"list": {"i": ["1", "1", "1", "1"]}}, "use_cudnn_on_gpu": {"b": true}, "strides": {"list": {"i": ["1", "1", "1", "1"]}}, "epsilon": {"f": 0.0}}}, {"name": "StatefulPartitionedCall/functional_1_1/expanded_conv_2_depthwise_1/depthwise", "op": "DepthwiseConv2dNative", "input": ["StatefulPartitionedCall/functional_1_1/re_lu_4_1/Relu", "StatefulPartitionedCall/functional_1_1/expanded_conv_2_depthwise_1/depthwise/ReadVariableOp"], "attr": {"explicit_paddings": {"list": {}}, "padding": {"s": "U0FNRQ=="}, "strides": {"list": {"i": ["1", "1", "1", "1"]}}, "dilations": {"list": {"i": ["1", "1", "1", "1"]}}, "data_format": {"s": "TkhXQw=="}, "T": {"type": "DT_FLOAT"}}}, {"name": "StatefulPartitionedCall/functional_1_1/expanded_conv_2_depthwise_bn_1/batchnorm/mul_1", "op": "Mul", "input": ["StatefulPartitionedCall/functional_1_1/expanded_conv_2_depthwise_1/depthwise", "StatefulPartitionedCall/functional_1_1/expanded_conv_2_depthwise_bn_1/batchnorm/mul"], "attr": {"T": {"type": "DT_FLOAT"}}}, {"name": "StatefulPartitionedCall/functional_1_1/expanded_conv_2_depthwise_bn_1/batchnorm/add_1", "op": "AddV2", "input": ["StatefulPartitionedCall/functional_1_1/expanded_conv_2_depthwise_bn_1/batchnorm/mul_1", "StatefulPartitionedCall/functional_1_1/expanded_conv_2_depthwise_bn_1/batchnorm/sub"], "attr": {"T": {"type": "DT_FLOAT"}}}, {"name": "StatefulPartitionedCall/functional_1_1/re_lu_5_1/Relu", "op": "Relu", "input": ["StatefulPartitionedCall/functional_1_1/expanded_conv_2_depthwise_bn_1/batchnorm/add_1"], "attr": {"T": {"type": "DT_FLOAT"}}}, {"name": "StatefulPartitionedCall/functional_1_1/expanded_conv_2_project_bn_1/batchnorm/mul_1", "op": "Conv2D", "input": ["StatefulPartitionedCall/functional_1_1/re_lu_5_1/Relu", "StatefulPartitionedCall/functional_1_1/expanded_conv_2_project_1/convolution/merged_input"], "device": "/device:CPU:0", "attr": {"use_cudnn_on_gpu": {"b": true}, "padding": {"s": "U0FNRQ=="}, "explicit_paddings": {"list": {}}, "dilations": {"list": {"i": ["1", "1", "1", "1"]}}, "strides": {"list": {"i": ["1", "1", "1", "1"]}}, "T": {"type": "DT_FLOAT"}, "data_format": {"s": "TkhXQw=="}}}, {"name": "StatefulPartitionedCall/functional_1_1/expanded_conv_2_add_1/ArithmeticOptimizer/AddOpsRewrite_Leaf_1_Add", "op": "AddN", "input": ["StatefulPartitionedCall/functional_1_1/expanded_conv_1_project_bn_1/batchnorm/add_1", "StatefulPartitionedCall/functional_1_1/expanded_conv_2_project_bn_1/batchnorm/mul_1"], "attr": {"_grappler_ArithmeticOptimizer_AddOpsRewriteStage": {"b": true}, "T": {"type": "DT_FLOAT"}, "N": {"i": "2"}}}, {"name": "StatefulPartitionedCall/functional_1_1/expanded_conv_2_add_1/ArithmeticOptimizer/AddOpsRewrite_Add", "op": "AddV2", "input": ["StatefulPartitionedCall/functional_1_1/expanded_conv_2_project_bn_1/batchnorm/sub", "StatefulPartitionedCall/functional_1_1/expanded_conv_2_add_1/ArithmeticOptimizer/AddOpsRewrite_Leaf_1_Add"], "attr": {"T": {"type": "DT_FLOAT"}, "_grappler_ArithmeticOptimizer_AddOpsRewriteStage": {"b": true}}}, {"name": "StatefulPartitionedCall/functional_1_1/expanded_conv_3_expand_bn_1/batchnorm/add_1", "op": "_FusedConv2D", "input": ["StatefulPartitionedCall/functional_1_1/expanded_conv_2_add_1/ArithmeticOptimizer/AddOpsRewrite_Add", "StatefulPartitionedCall/functional_1_1/expanded_conv_3_expand_1/convolution/merged_input", "StatefulPartitionedCall/functional_1_1/expanded_conv_3_expand_bn_1/batchnorm/sub"], "device": "/device:CPU:0", "attr": {"dilations": {"list": {"i": ["1", "1", "1", "1"]}}, "explicit_paddings": {"list": {}}, "leakyrelu_alpha": {"f": 0.2}, "num_host_args": {"i": "0"}, "fused_ops": {"list": {"s": ["Qmlhc0FkZA=="]}}, "num_args": {"i": "1"}, "TArgs": {"list": {"type": ["DT_FLOAT"]}}, "T": {"type": "DT_FLOAT"}, "filter_format": {"s": "SFdJTw=="}, "epsilon": {"f": 0.0}, "data_format": {"s": "TkhXQw=="}, "strides": {"list": {"i": ["1", "1", "1", "1"]}}, "padding": {"s": "U0FNRQ=="}, "use_cudnn_on_gpu": {"b": true}}}, {"name": "StatefulPartitionedCall/functional_1_1/activation_1_2/truediv", "op": "Mul", "input": ["ConstantFolding/StatefulPartitionedCall/functional_1_1/activation_1_2/truediv_recip", "StatefulPartitionedCall/functional_1_1/expanded_conv_3_expand_bn_1/batchnorm/add_1"], "attr": {"T": {"type": "DT_FLOAT"}, "_grappler_ArithmeticOptimizer_MinimizeBroadcasts": {"b": true}}}, {"name": "StatefulPartitionedCall/functional_1_1/activation_1_2/add", "op": "AddV2", "input": ["StatefulPartitionedCall/functional_1_1/expanded_conv_3_expand_bn_1/batchnorm/add_1", "StatefulPartitionedCall/functional_1_1/activation_1_2/Const"], "attr": {"T": {"type": "DT_FLOAT"}}}, {"name": "StatefulPartitionedCall/functional_1_1/activation_1_2/Relu6", "op": "Relu6", "input": ["StatefulPartitionedCall/functional_1_1/activation_1_2/add"], "attr": {"T": {"type": "DT_FLOAT"}}}, {"name": "StatefulPartitionedCall/functional_1_1/activation_1_2/mul", "op": "Mul", "input": ["StatefulPartitionedCall/functional_1_1/activation_1_2/truediv", "StatefulPartitionedCall/functional_1_1/activation_1_2/Relu6"], "attr": {"_grappler_ArithmeticOptimizer_MinimizeBroadcasts": {"b": true}, "T": {"type": "DT_FLOAT"}}}, {"name": "StatefulPartitionedCall/functional_1_1/expanded_conv_3_depthwise_pad_1/Pad", "op": "Pad", "input": ["StatefulPartitionedCall/functional_1_1/activation_1_2/mul", "StatefulPartitionedCall/functional_1_1/expanded_conv_3_depthwise_pad_1/Const"], "attr": {"T": {"type": "DT_FLOAT"}, "Tpaddings": {"type": "DT_INT32"}}}, {"name": "StatefulPartitionedCall/functional_1_1/expanded_conv_3_depthwise_1/depthwise", "op": "DepthwiseConv2dNative", "input": ["StatefulPartitionedCall/functional_1_1/expanded_conv_3_depthwise_pad_1/Pad", "StatefulPartitionedCall/functional_1_1/expanded_conv_3_depthwise_1/depthwise/ReadVariableOp"], "attr": {"padding": {"s": "VkFMSUQ="}, "data_format": {"s": "TkhXQw=="}, "strides": {"list": {"i": ["1", "2", "2", "1"]}}, "dilations": {"list": {"i": ["1", "1", "1", "1"]}}, "T": {"type": "DT_FLOAT"}, "explicit_paddings": {"list": {}}}}, {"name": "StatefulPartitionedCall/functional_1_1/expanded_conv_3_depthwise_bn_1/batchnorm/mul_1", "op": "Mul", "input": ["StatefulPartitionedCall/functional_1_1/expanded_conv_3_depthwise_1/depthwise", "StatefulPartitionedCall/functional_1_1/expanded_conv_3_depthwise_bn_1/batchnorm/mul"], "attr": {"T": {"type": "DT_FLOAT"}}}, {"name": "StatefulPartitionedCall/functional_1_1/expanded_conv_3_depthwise_bn_1/batchnorm/add_1", "op": "AddV2", "input": ["StatefulPartitionedCall/functional_1_1/expanded_conv_3_depthwise_bn_1/batchnorm/mul_1", "StatefulPartitionedCall/functional_1_1/expanded_conv_3_depthwise_bn_1/batchnorm/sub"], "attr": {"T": {"type": "DT_FLOAT"}}}, {"name": "StatefulPartitionedCall/functional_1_1/activation_2_1/truediv", "op": "Mul", "input": ["ConstantFolding/StatefulPartitionedCall/functional_1_1/activation_2_1/truediv_recip", "StatefulPartitionedCall/functional_1_1/expanded_conv_3_depthwise_bn_1/batchnorm/add_1"], "attr": {"T": {"type": "DT_FLOAT"}, "_grappler_ArithmeticOptimizer_MinimizeBroadcasts": {"b": true}}}, {"name": "StatefulPartitionedCall/functional_1_1/activation_2_1/add", "op": "AddV2", "input": ["StatefulPartitionedCall/functional_1_1/expanded_conv_3_depthwise_bn_1/batchnorm/add_1", "StatefulPartitionedCall/functional_1_1/activation_2_1/Const"], "attr": {"T": {"type": "DT_FLOAT"}}}, {"name": "StatefulPartitionedCall/functional_1_1/activation_2_1/Relu6", "op": "Relu6", "input": ["StatefulPartitionedCall/functional_1_1/activation_2_1/add"], "attr": {"T": {"type": "DT_FLOAT"}}}, {"name": "StatefulPartitionedCall/functional_1_1/activation_2_1/mul", "op": "Mul", "input": ["StatefulPartitionedCall/functional_1_1/activation_2_1/truediv", "StatefulPartitionedCall/functional_1_1/activation_2_1/Relu6"], "attr": {"_grappler_ArithmeticOptimizer_MinimizeBroadcasts": {"b": true}, "T": {"type": "DT_FLOAT"}}}, {"name": "StatefulPartitionedCall/functional_1_1/expanded_conv_3_squeeze_excite_avg_pool_1/Mean", "op": "Mean", "input": ["StatefulPartitionedCall/functional_1_1/activation_2_1/mul", "StatefulPartitionedCall/functional_1_1/expanded_conv_3_squeeze_excite_avg_pool_1/Mean/reduction_indices"], "attr": {"T": {"type": "DT_FLOAT"}, "Tidx": {"type": "DT_INT32"}, "keep_dims": {"b": true}}}, {"name": "StatefulPartitionedCall/functional_1_1/expanded_conv_3_squeeze_excite_relu_1/Relu", "op": "_FusedConv2D", "input": ["StatefulPartitionedCall/functional_1_1/expanded_conv_3_squeeze_excite_avg_pool_1/Mean", "StatefulPartitionedCall/functional_1_1/expanded_conv_3_squeeze_excite_conv_1/convolution/ReadVariableOp", "StatefulPartitionedCall/functional_1_1/expanded_conv_3_squeeze_excite_conv_1/Reshape"], "device": "/device:CPU:0", "attr": {"filter_format": {"s": "SFdJTw=="}, "strides": {"list": {"i": ["1", "1", "1", "1"]}}, "leakyrelu_alpha": {"f": 0.2}, "T": {"type": "DT_FLOAT"}, "num_host_args": {"i": "0"}, "use_cudnn_on_gpu": {"b": true}, "fused_ops": {"list": {"s": ["Qmlhc0FkZA==", "UmVsdQ=="]}}, "explicit_paddings": {"list": {}}, "epsilon": {"f": 0.0}, "data_format": {"s": "TkhXQw=="}, "TArgs": {"list": {"type": ["DT_FLOAT"]}}, "num_args": {"i": "1"}, "padding": {"s": "U0FNRQ=="}, "dilations": {"list": {"i": ["1", "1", "1", "1"]}}}}, {"name": "StatefulPartitionedCall/functional_1_1/re_lu_6_1/Relu6", "op": "_FusedConv2D", "input": ["StatefulPartitionedCall/functional_1_1/expanded_conv_3_squeeze_excite_relu_1/Relu", "StatefulPartitionedCall/functional_1_1/expanded_conv_3_squeeze_excite_conv_1_2/convolution/ReadVariableOp", "StatefulPartitionedCall/functional_1_1/expanded_conv_3_squeeze_excite_conv_1_2/add"], "device": "/device:CPU:0", "attr": {"leakyrelu_alpha": {"f": 0.2}, "T": {"type": "DT_FLOAT"}, "data_format": {"s": "TkhXQw=="}, "dilations": {"list": {"i": ["1", "1", "1", "1"]}}, "use_cudnn_on_gpu": {"b": true}, "epsilon": {"f": 0.0}, "num_host_args": {"i": "0"}, "strides": {"list": {"i": ["1", "1", "1", "1"]}}, "num_args": {"i": "1"}, "fused_ops": {"list": {"s": ["Qmlhc0FkZA==", "UmVsdTY="]}}, "padding": {"s": "U0FNRQ=="}, "explicit_paddings": {"list": {}}, "filter_format": {"s": "SFdJTw=="}, "TArgs": {"list": {"type": ["DT_FLOAT"]}}}}, {"name": "StatefulPartitionedCall/functional_1_1/Mul_1", "op": "Mul", "input": ["StatefulPartitionedCall/functional_1_1/Const_3", "StatefulPartitionedCall/functional_1_1/re_lu_6_1/Relu6"], "attr": {"_grappler_ArithmeticOptimizer_MinimizeBroadcasts": {"b": true}, "T": {"type": "DT_FLOAT"}}}, {"name": "StatefulPartitionedCall/functional_1_1/expanded_conv_3_squeeze_excite_mul_1/Mul", "op": "Mul", "input": ["StatefulPartitionedCall/functional_1_1/Mul_1", "StatefulPartitionedCall/functional_1_1/activation_2_1/mul"], "attr": {"_grappler_ArithmeticOptimizer_MinimizeBroadcasts": {"b": true}, "T": {"type": "DT_FLOAT"}}}, {"name": "StatefulPartitionedCall/functional_1_1/expanded_conv_3_project_bn_1/batchnorm/add_1", "op": "_FusedConv2D", "input": ["StatefulPartitionedCall/functional_1_1/expanded_conv_3_squeeze_excite_mul_1/Mul", "StatefulPartitionedCall/functional_1_1/expanded_conv_3_project_1/convolution/merged_input", "StatefulPartitionedCall/functional_1_1/expanded_conv_3_project_bn_1/batchnorm/sub"], "device": "/device:CPU:0", "attr": {"num_host_args": {"i": "0"}, "dilations": {"list": {"i": ["1", "1", "1", "1"]}}, "strides": {"list": {"i": ["1", "1", "1", "1"]}}, "data_format": {"s": "TkhXQw=="}, "explicit_paddings": {"list": {}}, "use_cudnn_on_gpu": {"b": true}, "padding": {"s": "U0FNRQ=="}, "epsilon": {"f": 0.0}, "num_args": {"i": "1"}, "filter_format": {"s": "SFdJTw=="}, "fused_ops": {"list": {"s": ["Qmlhc0FkZA=="]}}, "leakyrelu_alpha": {"f": 0.2}, "T": {"type": "DT_FLOAT"}, "TArgs": {"list": {"type": ["DT_FLOAT"]}}}}, {"name": "StatefulPartitionedCall/functional_1_1/expanded_conv_4_expand_bn_1/batchnorm/add_1", "op": "_FusedConv2D", "input": ["StatefulPartitionedCall/functional_1_1/expanded_conv_3_project_bn_1/batchnorm/add_1", "StatefulPartitionedCall/functional_1_1/expanded_conv_4_expand_1/convolution/merged_input", "StatefulPartitionedCall/functional_1_1/expanded_conv_4_expand_bn_1/batchnorm/sub"], "device": "/device:CPU:0", "attr": {"data_format": {"s": "TkhXQw=="}, "explicit_paddings": {"list": {}}, "strides": {"list": {"i": ["1", "1", "1", "1"]}}, "num_args": {"i": "1"}, "use_cudnn_on_gpu": {"b": true}, "fused_ops": {"list": {"s": ["Qmlhc0FkZA=="]}}, "T": {"type": "DT_FLOAT"}, "leakyrelu_alpha": {"f": 0.2}, "filter_format": {"s": "SFdJTw=="}, "padding": {"s": "U0FNRQ=="}, "epsilon": {"f": 0.0}, "num_host_args": {"i": "0"}, "dilations": {"list": {"i": ["1", "1", "1", "1"]}}, "TArgs": {"list": {"type": ["DT_FLOAT"]}}}}, {"name": "StatefulPartitionedCall/functional_1_1/activation_3_1/truediv", "op": "Mul", "input": ["ConstantFolding/StatefulPartitionedCall/functional_1_1/activation_3_1/truediv_recip", "StatefulPartitionedCall/functional_1_1/expanded_conv_4_expand_bn_1/batchnorm/add_1"], "attr": {"T": {"type": "DT_FLOAT"}, "_grappler_ArithmeticOptimizer_MinimizeBroadcasts": {"b": true}}}, {"name": "StatefulPartitionedCall/functional_1_1/activation_3_1/add", "op": "AddV2", "input": ["StatefulPartitionedCall/functional_1_1/expanded_conv_4_expand_bn_1/batchnorm/add_1", "StatefulPartitionedCall/functional_1_1/activation_3_1/Const"], "attr": {"T": {"type": "DT_FLOAT"}}}, {"name": "StatefulPartitionedCall/functional_1_1/activation_3_1/Relu6", "op": "Relu6", "input": ["StatefulPartitionedCall/functional_1_1/activation_3_1/add"], "attr": {"T": {"type": "DT_FLOAT"}}}, {"name": "StatefulPartitionedCall/functional_1_1/activation_3_1/mul", "op": "Mul", "input": ["StatefulPartitionedCall/functional_1_1/activation_3_1/truediv", "StatefulPartitionedCall/functional_1_1/activation_3_1/Relu6"], "attr": {"T": {"type": "DT_FLOAT"}, "_grappler_ArithmeticOptimizer_MinimizeBroadcasts": {"b": true}}}, {"name": "StatefulPartitionedCall/functional_1_1/expanded_conv_4_depthwise_1/depthwise", "op": "DepthwiseConv2dNative", "input": ["StatefulPartitionedCall/functional_1_1/activation_3_1/mul", "StatefulPartitionedCall/functional_1_1/expanded_conv_4_depthwise_1/depthwise/ReadVariableOp"], "attr": {"padding": {"s": "U0FNRQ=="}, "data_format": {"s": "TkhXQw=="}, "strides": {"list": {"i": ["1", "1", "1", "1"]}}, "T": {"type": "DT_FLOAT"}, "dilations": {"list": {"i": ["1", "1", "1", "1"]}}, "explicit_paddings": {"list": {}}}}, {"name": "StatefulPartitionedCall/functional_1_1/expanded_conv_4_depthwise_bn_1/batchnorm/mul_1", "op": "Mul", "input": ["StatefulPartitionedCall/functional_1_1/expanded_conv_4_depthwise_1/depthwise", "StatefulPartitionedCall/functional_1_1/expanded_conv_4_depthwise_bn_1/batchnorm/mul"], "attr": {"T": {"type": "DT_FLOAT"}}}, {"name": "StatefulPartitionedCall/functional_1_1/expanded_conv_4_depthwise_bn_1/batchnorm/add_1", "op": "AddV2", "input": ["StatefulPartitionedCall/functional_1_1/expanded_conv_4_depthwise_bn_1/batchnorm/mul_1", "StatefulPartitionedCall/functional_1_1/expanded_conv_4_depthwise_bn_1/batchnorm/sub"], "attr": {"T": {"type": "DT_FLOAT"}}}, {"name": "StatefulPartitionedCall/functional_1_1/activation_4_1/truediv", "op": "Mul", "input": ["ConstantFolding/StatefulPartitionedCall/functional_1_1/activation_4_1/truediv_recip", "StatefulPartitionedCall/functional_1_1/expanded_conv_4_depthwise_bn_1/batchnorm/add_1"], "attr": {"T": {"type": "DT_FLOAT"}, "_grappler_ArithmeticOptimizer_MinimizeBroadcasts": {"b": true}}}, {"name": "StatefulPartitionedCall/functional_1_1/activation_4_1/add", "op": "AddV2", "input": ["StatefulPartitionedCall/functional_1_1/expanded_conv_4_depthwise_bn_1/batchnorm/add_1", "StatefulPartitionedCall/functional_1_1/activation_4_1/Const"], "attr": {"T": {"type": "DT_FLOAT"}}}, {"name": "StatefulPartitionedCall/functional_1_1/activation_4_1/Relu6", "op": "Relu6", "input": ["StatefulPartitionedCall/functional_1_1/activation_4_1/add"], "attr": {"T": {"type": "DT_FLOAT"}}}, {"name": "StatefulPartitionedCall/functional_1_1/activation_4_1/mul", "op": "Mul", "input": ["StatefulPartitionedCall/functional_1_1/activation_4_1/truediv", "StatefulPartitionedCall/functional_1_1/activation_4_1/Relu6"], "attr": {"_grappler_ArithmeticOptimizer_MinimizeBroadcasts": {"b": true}, "T": {"type": "DT_FLOAT"}}}, {"name": "StatefulPartitionedCall/functional_1_1/expanded_conv_4_squeeze_excite_avg_pool_1/Mean", "op": "Mean", "input": ["StatefulPartitionedCall/functional_1_1/activation_4_1/mul", "StatefulPartitionedCall/functional_1_1/expanded_conv_4_squeeze_excite_avg_pool_1/Mean/reduction_indices"], "attr": {"keep_dims": {"b": true}, "Tidx": {"type": "DT_INT32"}, "T": {"type": "DT_FLOAT"}}}, {"name": "StatefulPartitionedCall/functional_1_1/expanded_conv_4_squeeze_excite_relu_1/Relu", "op": "_FusedConv2D", "input": ["StatefulPartitionedCall/functional_1_1/expanded_conv_4_squeeze_excite_avg_pool_1/Mean", "StatefulPartitionedCall/functional_1_1/expanded_conv_4_squeeze_excite_conv_1/convolution/ReadVariableOp", "StatefulPartitionedCall/functional_1_1/expanded_conv_4_squeeze_excite_conv_1/Reshape"], "device": "/device:CPU:0", "attr": {"dilations": {"list": {"i": ["1", "1", "1", "1"]}}, "num_host_args": {"i": "0"}, "data_format": {"s": "TkhXQw=="}, "leakyrelu_alpha": {"f": 0.2}, "use_cudnn_on_gpu": {"b": true}, "fused_ops": {"list": {"s": ["Qmlhc0FkZA==", "UmVsdQ=="]}}, "strides": {"list": {"i": ["1", "1", "1", "1"]}}, "T": {"type": "DT_FLOAT"}, "num_args": {"i": "1"}, "filter_format": {"s": "SFdJTw=="}, "explicit_paddings": {"list": {}}, "padding": {"s": "U0FNRQ=="}, "epsilon": {"f": 0.0}, "TArgs": {"list": {"type": ["DT_FLOAT"]}}}}, {"name": "StatefulPartitionedCall/functional_1_1/re_lu_7_1/Relu6", "op": "_FusedConv2D", "input": ["StatefulPartitionedCall/functional_1_1/expanded_conv_4_squeeze_excite_relu_1/Relu", "StatefulPartitionedCall/functional_1_1/expanded_conv_4_squeeze_excite_conv_1_2/convolution/ReadVariableOp", "StatefulPartitionedCall/functional_1_1/expanded_conv_4_squeeze_excite_conv_1_2/add"], "device": "/device:CPU:0", "attr": {"explicit_paddings": {"list": {}}, "padding": {"s": "U0FNRQ=="}, "epsilon": {"f": 0.0}, "T": {"type": "DT_FLOAT"}, "fused_ops": {"list": {"s": ["Qmlhc0FkZA==", "UmVsdTY="]}}, "filter_format": {"s": "SFdJTw=="}, "num_host_args": {"i": "0"}, "dilations": {"list": {"i": ["1", "1", "1", "1"]}}, "TArgs": {"list": {"type": ["DT_FLOAT"]}}, "strides": {"list": {"i": ["1", "1", "1", "1"]}}, "num_args": {"i": "1"}, "data_format": {"s": "TkhXQw=="}, "use_cudnn_on_gpu": {"b": true}, "leakyrelu_alpha": {"f": 0.2}}}, {"name": "StatefulPartitionedCall/functional_1_1/Mul_2", "op": "Mul", "input": ["StatefulPartitionedCall/functional_1_1/Const_5", "StatefulPartitionedCall/functional_1_1/re_lu_7_1/Relu6"], "attr": {"_grappler_ArithmeticOptimizer_MinimizeBroadcasts": {"b": true}, "T": {"type": "DT_FLOAT"}}}, {"name": "StatefulPartitionedCall/functional_1_1/expanded_conv_4_squeeze_excite_mul_1/Mul", "op": "Mul", "input": ["StatefulPartitionedCall/functional_1_1/Mul_2", "StatefulPartitionedCall/functional_1_1/activation_4_1/mul"], "attr": {"T": {"type": "DT_FLOAT"}, "_grappler_ArithmeticOptimizer_MinimizeBroadcasts": {"b": true}}}, {"name": "StatefulPartitionedCall/functional_1_1/expanded_conv_4_project_bn_1/batchnorm/mul_1", "op": "Conv2D", "input": ["StatefulPartitionedCall/functional_1_1/expanded_conv_4_squeeze_excite_mul_1/Mul", "StatefulPartitionedCall/functional_1_1/expanded_conv_4_project_1/convolution/merged_input"], "device": "/device:CPU:0", "attr": {"strides": {"list": {"i": ["1", "1", "1", "1"]}}, "T": {"type": "DT_FLOAT"}, "use_cudnn_on_gpu": {"b": true}, "padding": {"s": "U0FNRQ=="}, "dilations": {"list": {"i": ["1", "1", "1", "1"]}}, "data_format": {"s": "TkhXQw=="}, "explicit_paddings": {"list": {}}}}, {"name": "StatefulPartitionedCall/functional_1_1/expanded_conv_4_add_1/ArithmeticOptimizer/AddOpsRewrite_Leaf_1_Add", "op": "AddN", "input": ["StatefulPartitionedCall/functional_1_1/expanded_conv_3_project_bn_1/batchnorm/add_1", "StatefulPartitionedCall/functional_1_1/expanded_conv_4_project_bn_1/batchnorm/mul_1"], "attr": {"N": {"i": "2"}, "_grappler_ArithmeticOptimizer_AddOpsRewriteStage": {"b": true}, "T": {"type": "DT_FLOAT"}}}, {"name": "StatefulPartitionedCall/functional_1_1/expanded_conv_4_add_1/ArithmeticOptimizer/AddOpsRewrite_Add", "op": "AddV2", "input": ["StatefulPartitionedCall/functional_1_1/expanded_conv_4_project_bn_1/batchnorm/sub", "StatefulPartitionedCall/functional_1_1/expanded_conv_4_add_1/ArithmeticOptimizer/AddOpsRewrite_Leaf_1_Add"], "attr": {"_grappler_ArithmeticOptimizer_AddOpsRewriteStage": {"b": true}, "T": {"type": "DT_FLOAT"}}}, {"name": "StatefulPartitionedCall/functional_1_1/expanded_conv_5_expand_bn_1/batchnorm/add_1", "op": "_FusedConv2D", "input": ["StatefulPartitionedCall/functional_1_1/expanded_conv_4_add_1/ArithmeticOptimizer/AddOpsRewrite_Add", "StatefulPartitionedCall/functional_1_1/expanded_conv_5_expand_1/convolution/merged_input", "StatefulPartitionedCall/functional_1_1/expanded_conv_5_expand_bn_1/batchnorm/sub"], "device": "/device:CPU:0", "attr": {"fused_ops": {"list": {"s": ["Qmlhc0FkZA=="]}}, "num_host_args": {"i": "0"}, "strides": {"list": {"i": ["1", "1", "1", "1"]}}, "padding": {"s": "U0FNRQ=="}, "num_args": {"i": "1"}, "T": {"type": "DT_FLOAT"}, "use_cudnn_on_gpu": {"b": true}, "dilations": {"list": {"i": ["1", "1", "1", "1"]}}, "data_format": {"s": "TkhXQw=="}, "epsilon": {"f": 0.0}, "TArgs": {"list": {"type": ["DT_FLOAT"]}}, "leakyrelu_alpha": {"f": 0.2}, "explicit_paddings": {"list": {}}, "filter_format": {"s": "SFdJTw=="}}}, {"name": "StatefulPartitionedCall/functional_1_1/activation_5_1/truediv", "op": "Mul", "input": ["ConstantFolding/StatefulPartitionedCall/functional_1_1/activation_5_1/truediv_recip", "StatefulPartitionedCall/functional_1_1/expanded_conv_5_expand_bn_1/batchnorm/add_1"], "attr": {"T": {"type": "DT_FLOAT"}, "_grappler_ArithmeticOptimizer_MinimizeBroadcasts": {"b": true}}}, {"name": "StatefulPartitionedCall/functional_1_1/activation_5_1/add", "op": "AddV2", "input": ["StatefulPartitionedCall/functional_1_1/expanded_conv_5_expand_bn_1/batchnorm/add_1", "StatefulPartitionedCall/functional_1_1/activation_5_1/Const"], "attr": {"T": {"type": "DT_FLOAT"}}}, {"name": "StatefulPartitionedCall/functional_1_1/activation_5_1/Relu6", "op": "Relu6", "input": ["StatefulPartitionedCall/functional_1_1/activation_5_1/add"], "attr": {"T": {"type": "DT_FLOAT"}}}, {"name": "StatefulPartitionedCall/functional_1_1/activation_5_1/mul", "op": "Mul", "input": ["StatefulPartitionedCall/functional_1_1/activation_5_1/truediv", "StatefulPartitionedCall/functional_1_1/activation_5_1/Relu6"], "attr": {"T": {"type": "DT_FLOAT"}, "_grappler_ArithmeticOptimizer_MinimizeBroadcasts": {"b": true}}}, {"name": "StatefulPartitionedCall/functional_1_1/expanded_conv_5_depthwise_1/depthwise", "op": "DepthwiseConv2dNative", "input": ["StatefulPartitionedCall/functional_1_1/activation_5_1/mul", "StatefulPartitionedCall/functional_1_1/expanded_conv_5_depthwise_1/depthwise/ReadVariableOp"], "attr": {"dilations": {"list": {"i": ["1", "1", "1", "1"]}}, "explicit_paddings": {"list": {}}, "T": {"type": "DT_FLOAT"}, "padding": {"s": "U0FNRQ=="}, "data_format": {"s": "TkhXQw=="}, "strides": {"list": {"i": ["1", "1", "1", "1"]}}}}, {"name": "StatefulPartitionedCall/functional_1_1/expanded_conv_5_depthwise_bn_1/batchnorm/mul_1", "op": "Mul", "input": ["StatefulPartitionedCall/functional_1_1/expanded_conv_5_depthwise_1/depthwise", "StatefulPartitionedCall/functional_1_1/expanded_conv_5_depthwise_bn_1/batchnorm/mul"], "attr": {"T": {"type": "DT_FLOAT"}}}, {"name": "StatefulPartitionedCall/functional_1_1/expanded_conv_5_depthwise_bn_1/batchnorm/add_1", "op": "AddV2", "input": ["StatefulPartitionedCall/functional_1_1/expanded_conv_5_depthwise_bn_1/batchnorm/mul_1", "StatefulPartitionedCall/functional_1_1/expanded_conv_5_depthwise_bn_1/batchnorm/sub"], "attr": {"T": {"type": "DT_FLOAT"}}}, {"name": "StatefulPartitionedCall/functional_1_1/activation_6_1/truediv", "op": "Mul", "input": ["ConstantFolding/StatefulPartitionedCall/functional_1_1/activation_6_1/truediv_recip", "StatefulPartitionedCall/functional_1_1/expanded_conv_5_depthwise_bn_1/batchnorm/add_1"], "attr": {"_grappler_ArithmeticOptimizer_MinimizeBroadcasts": {"b": true}, "T": {"type": "DT_FLOAT"}}}, {"name": "StatefulPartitionedCall/functional_1_1/activation_6_1/add", "op": "AddV2", "input": ["StatefulPartitionedCall/functional_1_1/expanded_conv_5_depthwise_bn_1/batchnorm/add_1", "StatefulPartitionedCall/functional_1_1/activation_6_1/Const"], "attr": {"T": {"type": "DT_FLOAT"}}}, {"name": "StatefulPartitionedCall/functional_1_1/activation_6_1/Relu6", "op": "Relu6", "input": ["StatefulPartitionedCall/functional_1_1/activation_6_1/add"], "attr": {"T": {"type": "DT_FLOAT"}}}, {"name": "StatefulPartitionedCall/functional_1_1/activation_6_1/mul", "op": "Mul", "input": ["StatefulPartitionedCall/functional_1_1/activation_6_1/truediv", "StatefulPartitionedCall/functional_1_1/activation_6_1/Relu6"], "attr": {"T": {"type": "DT_FLOAT"}, "_grappler_ArithmeticOptimizer_MinimizeBroadcasts": {"b": true}}}, {"name": "StatefulPartitionedCall/functional_1_1/expanded_conv_5_squeeze_excite_avg_pool_1/Mean", "op": "Mean", "input": ["StatefulPartitionedCall/functional_1_1/activation_6_1/mul", "StatefulPartitionedCall/functional_1_1/expanded_conv_5_squeeze_excite_avg_pool_1/Mean/reduction_indices"], "attr": {"keep_dims": {"b": true}, "Tidx": {"type": "DT_INT32"}, "T": {"type": "DT_FLOAT"}}}, {"name": "StatefulPartitionedCall/functional_1_1/expanded_conv_5_squeeze_excite_relu_1/Relu", "op": "_FusedConv2D", "input": ["StatefulPartitionedCall/functional_1_1/expanded_conv_5_squeeze_excite_avg_pool_1/Mean", "StatefulPartitionedCall/functional_1_1/expanded_conv_5_squeeze_excite_conv_1/convolution/ReadVariableOp", "StatefulPartitionedCall/functional_1_1/expanded_conv_5_squeeze_excite_conv_1/Reshape"], "device": "/device:CPU:0", "attr": {"use_cudnn_on_gpu": {"b": true}, "strides": {"list": {"i": ["1", "1", "1", "1"]}}, "fused_ops": {"list": {"s": ["Qmlhc0FkZA==", "UmVsdQ=="]}}, "filter_format": {"s": "SFdJTw=="}, "dilations": {"list": {"i": ["1", "1", "1", "1"]}}, "leakyrelu_alpha": {"f": 0.2}, "padding": {"s": "U0FNRQ=="}, "num_args": {"i": "1"}, "epsilon": {"f": 0.0}, "num_host_args": {"i": "0"}, "explicit_paddings": {"list": {}}, "data_format": {"s": "TkhXQw=="}, "T": {"type": "DT_FLOAT"}, "TArgs": {"list": {"type": ["DT_FLOAT"]}}}}, {"name": "StatefulPartitionedCall/functional_1_1/re_lu_8_1/Relu6", "op": "_FusedConv2D", "input": ["StatefulPartitionedCall/functional_1_1/expanded_conv_5_squeeze_excite_relu_1/Relu", "StatefulPartitionedCall/functional_1_1/expanded_conv_5_squeeze_excite_conv_1_2/convolution/ReadVariableOp", "StatefulPartitionedCall/functional_1_1/expanded_conv_5_squeeze_excite_conv_1_2/add"], "device": "/device:CPU:0", "attr": {"padding": {"s": "U0FNRQ=="}, "leakyrelu_alpha": {"f": 0.2}, "data_format": {"s": "TkhXQw=="}, "explicit_paddings": {"list": {}}, "filter_format": {"s": "SFdJTw=="}, "TArgs": {"list": {"type": ["DT_FLOAT"]}}, "use_cudnn_on_gpu": {"b": true}, "fused_ops": {"list": {"s": ["Qmlhc0FkZA==", "UmVsdTY="]}}, "num_host_args": {"i": "0"}, "epsilon": {"f": 0.0}, "dilations": {"list": {"i": ["1", "1", "1", "1"]}}, "strides": {"list": {"i": ["1", "1", "1", "1"]}}, "num_args": {"i": "1"}, "T": {"type": "DT_FLOAT"}}}, {"name": "StatefulPartitionedCall/functional_1_1/Mul_3", "op": "Mul", "input": ["StatefulPartitionedCall/functional_1_1/Const_7", "StatefulPartitionedCall/functional_1_1/re_lu_8_1/Relu6"], "attr": {"T": {"type": "DT_FLOAT"}, "_grappler_ArithmeticOptimizer_MinimizeBroadcasts": {"b": true}}}, {"name": "StatefulPartitionedCall/functional_1_1/expanded_conv_5_squeeze_excite_mul_1/Mul", "op": "Mul", "input": ["StatefulPartitionedCall/functional_1_1/Mul_3", "StatefulPartitionedCall/functional_1_1/activation_6_1/mul"], "attr": {"_grappler_ArithmeticOptimizer_MinimizeBroadcasts": {"b": true}, "T": {"type": "DT_FLOAT"}}}, {"name": "StatefulPartitionedCall/functional_1_1/expanded_conv_5_project_bn_1/batchnorm/mul_1", "op": "Conv2D", "input": ["StatefulPartitionedCall/functional_1_1/expanded_conv_5_squeeze_excite_mul_1/Mul", "StatefulPartitionedCall/functional_1_1/expanded_conv_5_project_1/convolution/merged_input"], "device": "/device:CPU:0", "attr": {"T": {"type": "DT_FLOAT"}, "data_format": {"s": "TkhXQw=="}, "padding": {"s": "U0FNRQ=="}, "use_cudnn_on_gpu": {"b": true}, "dilations": {"list": {"i": ["1", "1", "1", "1"]}}, "explicit_paddings": {"list": {}}, "strides": {"list": {"i": ["1", "1", "1", "1"]}}}}, {"name": "StatefulPartitionedCall/functional_1_1/expanded_conv_5_add_1/ArithmeticOptimizer/AddOpsRewrite_Leaf_1_Add", "op": "AddN", "input": ["StatefulPartitionedCall/functional_1_1/expanded_conv_4_add_1/ArithmeticOptimizer/AddOpsRewrite_Add", "StatefulPartitionedCall/functional_1_1/expanded_conv_5_project_bn_1/batchnorm/mul_1"], "attr": {"N": {"i": "2"}, "_grappler_ArithmeticOptimizer_AddOpsRewriteStage": {"b": true}, "T": {"type": "DT_FLOAT"}}}, {"name": "StatefulPartitionedCall/functional_1_1/expanded_conv_5_add_1/ArithmeticOptimizer/AddOpsRewrite_Add", "op": "AddV2", "input": ["StatefulPartitionedCall/functional_1_1/expanded_conv_5_project_bn_1/batchnorm/sub", "StatefulPartitionedCall/functional_1_1/expanded_conv_5_add_1/ArithmeticOptimizer/AddOpsRewrite_Leaf_1_Add"], "attr": {"_grappler_ArithmeticOptimizer_AddOpsRewriteStage": {"b": true}, "T": {"type": "DT_FLOAT"}}}, {"name": "StatefulPartitionedCall/functional_1_1/expanded_conv_6_expand_bn_1/batchnorm/add_1", "op": "_FusedConv2D", "input": ["StatefulPartitionedCall/functional_1_1/expanded_conv_5_add_1/ArithmeticOptimizer/AddOpsRewrite_Add", "StatefulPartitionedCall/functional_1_1/expanded_conv_6_expand_1/convolution/merged_input", "StatefulPartitionedCall/functional_1_1/expanded_conv_6_expand_bn_1/batchnorm/sub"], "device": "/device:CPU:0", "attr": {"explicit_paddings": {"list": {}}, "use_cudnn_on_gpu": {"b": true}, "leakyrelu_alpha": {"f": 0.2}, "dilations": {"list": {"i": ["1", "1", "1", "1"]}}, "num_host_args": {"i": "0"}, "num_args": {"i": "1"}, "fused_ops": {"list": {"s": ["Qmlhc0FkZA=="]}}, "strides": {"list": {"i": ["1", "1", "1", "1"]}}, "padding": {"s": "U0FNRQ=="}, "filter_format": {"s": "SFdJTw=="}, "data_format": {"s": "TkhXQw=="}, "epsilon": {"f": 0.0}, "TArgs": {"list": {"type": ["DT_FLOAT"]}}, "T": {"type": "DT_FLOAT"}}}, {"name": "StatefulPartitionedCall/functional_1_1/activation_7_1/truediv", "op": "Mul", "input": ["ConstantFolding/StatefulPartitionedCall/functional_1_1/activation_7_1/truediv_recip", "StatefulPartitionedCall/functional_1_1/expanded_conv_6_expand_bn_1/batchnorm/add_1"], "attr": {"_grappler_ArithmeticOptimizer_MinimizeBroadcasts": {"b": true}, "T": {"type": "DT_FLOAT"}}}, {"name": "StatefulPartitionedCall/functional_1_1/activation_7_1/add", "op": "AddV2", "input": ["StatefulPartitionedCall/functional_1_1/expanded_conv_6_expand_bn_1/batchnorm/add_1", "StatefulPartitionedCall/functional_1_1/activation_7_1/Const"], "attr": {"T": {"type": "DT_FLOAT"}}}, {"name": "StatefulPartitionedCall/functional_1_1/activation_7_1/Relu6", "op": "Relu6", "input": ["StatefulPartitionedCall/functional_1_1/activation_7_1/add"], "attr": {"T": {"type": "DT_FLOAT"}}}, {"name": "StatefulPartitionedCall/functional_1_1/activation_7_1/mul", "op": "Mul", "input": ["StatefulPartitionedCall/functional_1_1/activation_7_1/truediv", "StatefulPartitionedCall/functional_1_1/activation_7_1/Relu6"], "attr": {"_grappler_ArithmeticOptimizer_MinimizeBroadcasts": {"b": true}, "T": {"type": "DT_FLOAT"}}}, {"name": "StatefulPartitionedCall/functional_1_1/expanded_conv_6_depthwise_1/depthwise", "op": "DepthwiseConv2dNative", "input": ["StatefulPartitionedCall/functional_1_1/activation_7_1/mul", "StatefulPartitionedCall/functional_1_1/expanded_conv_6_depthwise_1/depthwise/ReadVariableOp"], "attr": {"dilations": {"list": {"i": ["1", "1", "1", "1"]}}, "explicit_paddings": {"list": {}}, "padding": {"s": "U0FNRQ=="}, "T": {"type": "DT_FLOAT"}, "data_format": {"s": "TkhXQw=="}, "strides": {"list": {"i": ["1", "1", "1", "1"]}}}}, {"name": "StatefulPartitionedCall/functional_1_1/expanded_conv_6_depthwise_bn_1/batchnorm/mul_1", "op": "Mul", "input": ["StatefulPartitionedCall/functional_1_1/expanded_conv_6_depthwise_1/depthwise", "StatefulPartitionedCall/functional_1_1/expanded_conv_6_depthwise_bn_1/batchnorm/mul"], "attr": {"T": {"type": "DT_FLOAT"}}}, {"name": "StatefulPartitionedCall/functional_1_1/expanded_conv_6_depthwise_bn_1/batchnorm/add_1", "op": "AddV2", "input": ["StatefulPartitionedCall/functional_1_1/expanded_conv_6_depthwise_bn_1/batchnorm/mul_1", "StatefulPartitionedCall/functional_1_1/expanded_conv_6_depthwise_bn_1/batchnorm/sub"], "attr": {"T": {"type": "DT_FLOAT"}}}, {"name": "StatefulPartitionedCall/functional_1_1/activation_8_1/truediv", "op": "Mul", "input": ["ConstantFolding/StatefulPartitionedCall/functional_1_1/activation_8_1/truediv_recip", "StatefulPartitionedCall/functional_1_1/expanded_conv_6_depthwise_bn_1/batchnorm/add_1"], "attr": {"T": {"type": "DT_FLOAT"}, "_grappler_ArithmeticOptimizer_MinimizeBroadcasts": {"b": true}}}, {"name": "StatefulPartitionedCall/functional_1_1/activation_8_1/add", "op": "AddV2", "input": ["StatefulPartitionedCall/functional_1_1/expanded_conv_6_depthwise_bn_1/batchnorm/add_1", "StatefulPartitionedCall/functional_1_1/activation_8_1/Const"], "attr": {"T": {"type": "DT_FLOAT"}}}, {"name": "StatefulPartitionedCall/functional_1_1/activation_8_1/Relu6", "op": "Relu6", "input": ["StatefulPartitionedCall/functional_1_1/activation_8_1/add"], "attr": {"T": {"type": "DT_FLOAT"}}}, {"name": "StatefulPartitionedCall/functional_1_1/activation_8_1/mul", "op": "Mul", "input": ["StatefulPartitionedCall/functional_1_1/activation_8_1/truediv", "StatefulPartitionedCall/functional_1_1/activation_8_1/Relu6"], "attr": {"_grappler_ArithmeticOptimizer_MinimizeBroadcasts": {"b": true}, "T": {"type": "DT_FLOAT"}}}, {"name": "StatefulPartitionedCall/functional_1_1/expanded_conv_6_squeeze_excite_avg_pool_1/Mean", "op": "Mean", "input": ["StatefulPartitionedCall/functional_1_1/activation_8_1/mul", "StatefulPartitionedCall/functional_1_1/expanded_conv_6_squeeze_excite_avg_pool_1/Mean/reduction_indices"], "attr": {"T": {"type": "DT_FLOAT"}, "Tidx": {"type": "DT_INT32"}, "keep_dims": {"b": true}}}, {"name": "StatefulPartitionedCall/functional_1_1/expanded_conv_6_squeeze_excite_relu_1/Relu", "op": "_FusedConv2D", "input": ["StatefulPartitionedCall/functional_1_1/expanded_conv_6_squeeze_excite_avg_pool_1/Mean", "StatefulPartitionedCall/functional_1_1/expanded_conv_6_squeeze_excite_conv_1/convolution/ReadVariableOp", "StatefulPartitionedCall/functional_1_1/expanded_conv_6_squeeze_excite_conv_1/Reshape"], "device": "/device:CPU:0", "attr": {"num_host_args": {"i": "0"}, "TArgs": {"list": {"type": ["DT_FLOAT"]}}, "use_cudnn_on_gpu": {"b": true}, "filter_format": {"s": "SFdJTw=="}, "data_format": {"s": "TkhXQw=="}, "padding": {"s": "U0FNRQ=="}, "leakyrelu_alpha": {"f": 0.2}, "T": {"type": "DT_FLOAT"}, "dilations": {"list": {"i": ["1", "1", "1", "1"]}}, "num_args": {"i": "1"}, "fused_ops": {"list": {"s": ["Qmlhc0FkZA==", "UmVsdQ=="]}}, "strides": {"list": {"i": ["1", "1", "1", "1"]}}, "epsilon": {"f": 0.0}, "explicit_paddings": {"list": {}}}}, {"name": "StatefulPartitionedCall/functional_1_1/re_lu_9_1/Relu6", "op": "_FusedConv2D", "input": ["StatefulPartitionedCall/functional_1_1/expanded_conv_6_squeeze_excite_relu_1/Relu", "StatefulPartitionedCall/functional_1_1/expanded_conv_6_squeeze_excite_conv_1_2/convolution/ReadVariableOp", "StatefulPartitionedCall/functional_1_1/expanded_conv_6_squeeze_excite_conv_1_2/add"], "device": "/device:CPU:0", "attr": {"dilations": {"list": {"i": ["1", "1", "1", "1"]}}, "strides": {"list": {"i": ["1", "1", "1", "1"]}}, "leakyrelu_alpha": {"f": 0.2}, "data_format": {"s": "TkhXQw=="}, "filter_format": {"s": "SFdJTw=="}, "TArgs": {"list": {"type": ["DT_FLOAT"]}}, "padding": {"s": "U0FNRQ=="}, "use_cudnn_on_gpu": {"b": true}, "fused_ops": {"list": {"s": ["Qmlhc0FkZA==", "UmVsdTY="]}}, "num_host_args": {"i": "0"}, "T": {"type": "DT_FLOAT"}, "epsilon": {"f": 0.0}, "num_args": {"i": "1"}, "explicit_paddings": {"list": {}}}}, {"name": "StatefulPartitionedCall/functional_1_1/Mul_4", "op": "Mul", "input": ["StatefulPartitionedCall/functional_1_1/Const_9", "StatefulPartitionedCall/functional_1_1/re_lu_9_1/Relu6"], "attr": {"_grappler_ArithmeticOptimizer_MinimizeBroadcasts": {"b": true}, "T": {"type": "DT_FLOAT"}}}, {"name": "StatefulPartitionedCall/functional_1_1/expanded_conv_6_squeeze_excite_mul_1/Mul", "op": "Mul", "input": ["StatefulPartitionedCall/functional_1_1/Mul_4", "StatefulPartitionedCall/functional_1_1/activation_8_1/mul"], "attr": {"_grappler_ArithmeticOptimizer_MinimizeBroadcasts": {"b": true}, "T": {"type": "DT_FLOAT"}}}, {"name": "StatefulPartitionedCall/functional_1_1/expanded_conv_6_project_bn_1/batchnorm/add_1", "op": "_FusedConv2D", "input": ["StatefulPartitionedCall/functional_1_1/expanded_conv_6_squeeze_excite_mul_1/Mul", "StatefulPartitionedCall/functional_1_1/expanded_conv_6_project_1/convolution/merged_input", "StatefulPartitionedCall/functional_1_1/expanded_conv_6_project_bn_1/batchnorm/sub"], "device": "/device:CPU:0", "attr": {"padding": {"s": "U0FNRQ=="}, "T": {"type": "DT_FLOAT"}, "data_format": {"s": "TkhXQw=="}, "use_cudnn_on_gpu": {"b": true}, "leakyrelu_alpha": {"f": 0.2}, "filter_format": {"s": "SFdJTw=="}, "fused_ops": {"list": {"s": ["Qmlhc0FkZA=="]}}, "strides": {"list": {"i": ["1", "1", "1", "1"]}}, "dilations": {"list": {"i": ["1", "1", "1", "1"]}}, "epsilon": {"f": 0.0}, "num_args": {"i": "1"}, "num_host_args": {"i": "0"}, "TArgs": {"list": {"type": ["DT_FLOAT"]}}, "explicit_paddings": {"list": {}}}}, {"name": "StatefulPartitionedCall/functional_1_1/expanded_conv_7_expand_bn_1/batchnorm/add_1", "op": "_FusedConv2D", "input": ["StatefulPartitionedCall/functional_1_1/expanded_conv_6_project_bn_1/batchnorm/add_1", "StatefulPartitionedCall/functional_1_1/expanded_conv_7_expand_1/convolution/merged_input", "StatefulPartitionedCall/functional_1_1/expanded_conv_7_expand_bn_1/batchnorm/sub"], "device": "/device:CPU:0", "attr": {"dilations": {"list": {"i": ["1", "1", "1", "1"]}}, "TArgs": {"list": {"type": ["DT_FLOAT"]}}, "num_args": {"i": "1"}, "epsilon": {"f": 0.0}, "explicit_paddings": {"list": {}}, "filter_format": {"s": "SFdJTw=="}, "use_cudnn_on_gpu": {"b": true}, "strides": {"list": {"i": ["1", "1", "1", "1"]}}, "fused_ops": {"list": {"s": ["Qmlhc0FkZA=="]}}, "num_host_args": {"i": "0"}, "padding": {"s": "U0FNRQ=="}, "data_format": {"s": "TkhXQw=="}, "T": {"type": "DT_FLOAT"}, "leakyrelu_alpha": {"f": 0.2}}}, {"name": "StatefulPartitionedCall/functional_1_1/activation_9_1/truediv", "op": "Mul", "input": ["ConstantFolding/StatefulPartitionedCall/functional_1_1/activation_9_1/truediv_recip", "StatefulPartitionedCall/functional_1_1/expanded_conv_7_expand_bn_1/batchnorm/add_1"], "attr": {"T": {"type": "DT_FLOAT"}, "_grappler_ArithmeticOptimizer_MinimizeBroadcasts": {"b": true}}}, {"name": "StatefulPartitionedCall/functional_1_1/activation_9_1/add", "op": "AddV2", "input": ["StatefulPartitionedCall/functional_1_1/expanded_conv_7_expand_bn_1/batchnorm/add_1", "StatefulPartitionedCall/functional_1_1/activation_9_1/Const"], "attr": {"T": {"type": "DT_FLOAT"}}}, {"name": "StatefulPartitionedCall/functional_1_1/activation_9_1/Relu6", "op": "Relu6", "input": ["StatefulPartitionedCall/functional_1_1/activation_9_1/add"], "attr": {"T": {"type": "DT_FLOAT"}}}, {"name": "StatefulPartitionedCall/functional_1_1/activation_9_1/mul", "op": "Mul", "input": ["StatefulPartitionedCall/functional_1_1/activation_9_1/truediv", "StatefulPartitionedCall/functional_1_1/activation_9_1/Relu6"], "attr": {"_grappler_ArithmeticOptimizer_MinimizeBroadcasts": {"b": true}, "T": {"type": "DT_FLOAT"}}}, {"name": "StatefulPartitionedCall/functional_1_1/expanded_conv_7_depthwise_1/depthwise", "op": "DepthwiseConv2dNative", "input": ["StatefulPartitionedCall/functional_1_1/activation_9_1/mul", "StatefulPartitionedCall/functional_1_1/expanded_conv_7_depthwise_1/depthwise/ReadVariableOp"], "attr": {"strides": {"list": {"i": ["1", "1", "1", "1"]}}, "data_format": {"s": "TkhXQw=="}, "dilations": {"list": {"i": ["1", "1", "1", "1"]}}, "explicit_paddings": {"list": {}}, "padding": {"s": "U0FNRQ=="}, "T": {"type": "DT_FLOAT"}}}, {"name": "StatefulPartitionedCall/functional_1_1/expanded_conv_7_depthwise_bn_1/batchnorm/mul_1", "op": "Mul", "input": ["StatefulPartitionedCall/functional_1_1/expanded_conv_7_depthwise_1/depthwise", "StatefulPartitionedCall/functional_1_1/expanded_conv_7_depthwise_bn_1/batchnorm/mul"], "attr": {"T": {"type": "DT_FLOAT"}}}, {"name": "StatefulPartitionedCall/functional_1_1/expanded_conv_7_depthwise_bn_1/batchnorm/add_1", "op": "AddV2", "input": ["StatefulPartitionedCall/functional_1_1/expanded_conv_7_depthwise_bn_1/batchnorm/mul_1", "StatefulPartitionedCall/functional_1_1/expanded_conv_7_depthwise_bn_1/batchnorm/sub"], "attr": {"T": {"type": "DT_FLOAT"}}}, {"name": "StatefulPartitionedCall/functional_1_1/activation_10_1/truediv", "op": "Mul", "input": ["ConstantFolding/StatefulPartitionedCall/functional_1_1/activation_10_1/truediv_recip", "StatefulPartitionedCall/functional_1_1/expanded_conv_7_depthwise_bn_1/batchnorm/add_1"], "attr": {"T": {"type": "DT_FLOAT"}, "_grappler_ArithmeticOptimizer_MinimizeBroadcasts": {"b": true}}}, {"name": "StatefulPartitionedCall/functional_1_1/activation_10_1/add", "op": "AddV2", "input": ["StatefulPartitionedCall/functional_1_1/expanded_conv_7_depthwise_bn_1/batchnorm/add_1", "StatefulPartitionedCall/functional_1_1/activation_10_1/Const"], "attr": {"T": {"type": "DT_FLOAT"}}}, {"name": "StatefulPartitionedCall/functional_1_1/activation_10_1/Relu6", "op": "Relu6", "input": ["StatefulPartitionedCall/functional_1_1/activation_10_1/add"], "attr": {"T": {"type": "DT_FLOAT"}}}, {"name": "StatefulPartitionedCall/functional_1_1/activation_10_1/mul", "op": "Mul", "input": ["StatefulPartitionedCall/functional_1_1/activation_10_1/truediv", "StatefulPartitionedCall/functional_1_1/activation_10_1/Relu6"], "attr": {"_grappler_ArithmeticOptimizer_MinimizeBroadcasts": {"b": true}, "T": {"type": "DT_FLOAT"}}}, {"name": "StatefulPartitionedCall/functional_1_1/expanded_conv_7_squeeze_excite_avg_pool_1/Mean", "op": "Mean", "input": ["StatefulPartitionedCall/functional_1_1/activation_10_1/mul", "StatefulPartitionedCall/functional_1_1/expanded_conv_7_squeeze_excite_avg_pool_1/Mean/reduction_indices"], "attr": {"keep_dims": {"b": true}, "Tidx": {"type": "DT_INT32"}, "T": {"type": "DT_FLOAT"}}}, {"name": "StatefulPartitionedCall/functional_1_1/expanded_conv_7_squeeze_excite_relu_1/Relu", "op": "_FusedConv2D", "input": ["StatefulPartitionedCall/functional_1_1/expanded_conv_7_squeeze_excite_avg_pool_1/Mean", "StatefulPartitionedCall/functional_1_1/expanded_conv_7_squeeze_excite_conv_1/convolution/ReadVariableOp", "StatefulPartitionedCall/functional_1_1/expanded_conv_7_squeeze_excite_conv_1/Reshape"], "device": "/device:CPU:0", "attr": {"strides": {"list": {"i": ["1", "1", "1", "1"]}}, "T": {"type": "DT_FLOAT"}, "dilations": {"list": {"i": ["1", "1", "1", "1"]}}, "TArgs": {"list": {"type": ["DT_FLOAT"]}}, "filter_format": {"s": "SFdJTw=="}, "padding": {"s": "U0FNRQ=="}, "num_host_args": {"i": "0"}, "data_format": {"s": "TkhXQw=="}, "fused_ops": {"list": {"s": ["Qmlhc0FkZA==", "UmVsdQ=="]}}, "explicit_paddings": {"list": {}}, "num_args": {"i": "1"}, "epsilon": {"f": 0.0}, "leakyrelu_alpha": {"f": 0.2}, "use_cudnn_on_gpu": {"b": true}}}, {"name": "StatefulPartitionedCall/functional_1_1/re_lu_10_1/Relu6", "op": "_FusedConv2D", "input": ["StatefulPartitionedCall/functional_1_1/expanded_conv_7_squeeze_excite_relu_1/Relu", "StatefulPartitionedCall/functional_1_1/expanded_conv_7_squeeze_excite_conv_1_2/convolution/ReadVariableOp", "StatefulPartitionedCall/functional_1_1/expanded_conv_7_squeeze_excite_conv_1_2/add"], "device": "/device:CPU:0", "attr": {"use_cudnn_on_gpu": {"b": true}, "num_host_args": {"i": "0"}, "num_args": {"i": "1"}, "fused_ops": {"list": {"s": ["Qmlhc0FkZA==", "UmVsdTY="]}}, "leakyrelu_alpha": {"f": 0.2}, "epsilon": {"f": 0.0}, "filter_format": {"s": "SFdJTw=="}, "TArgs": {"list": {"type": ["DT_FLOAT"]}}, "T": {"type": "DT_FLOAT"}, "padding": {"s": "U0FNRQ=="}, "data_format": {"s": "TkhXQw=="}, "explicit_paddings": {"list": {}}, "strides": {"list": {"i": ["1", "1", "1", "1"]}}, "dilations": {"list": {"i": ["1", "1", "1", "1"]}}}}, {"name": "StatefulPartitionedCall/functional_1_1/Mul_5", "op": "Mul", "input": ["StatefulPartitionedCall/functional_1_1/Const_11", "StatefulPartitionedCall/functional_1_1/re_lu_10_1/Relu6"], "attr": {"T": {"type": "DT_FLOAT"}, "_grappler_ArithmeticOptimizer_MinimizeBroadcasts": {"b": true}}}, {"name": "StatefulPartitionedCall/functional_1_1/expanded_conv_7_squeeze_excite_mul_1/Mul", "op": "Mul", "input": ["StatefulPartitionedCall/functional_1_1/Mul_5", "StatefulPartitionedCall/functional_1_1/activation_10_1/mul"], "attr": {"T": {"type": "DT_FLOAT"}, "_grappler_ArithmeticOptimizer_MinimizeBroadcasts": {"b": true}}}, {"name": "StatefulPartitionedCall/functional_1_1/expanded_conv_7_project_bn_1/batchnorm/mul_1", "op": "Conv2D", "input": ["StatefulPartitionedCall/functional_1_1/expanded_conv_7_squeeze_excite_mul_1/Mul", "StatefulPartitionedCall/functional_1_1/expanded_conv_7_project_1/convolution/merged_input"], "device": "/device:CPU:0", "attr": {"data_format": {"s": "TkhXQw=="}, "dilations": {"list": {"i": ["1", "1", "1", "1"]}}, "explicit_paddings": {"list": {}}, "strides": {"list": {"i": ["1", "1", "1", "1"]}}, "T": {"type": "DT_FLOAT"}, "use_cudnn_on_gpu": {"b": true}, "padding": {"s": "U0FNRQ=="}}}, {"name": "StatefulPartitionedCall/functional_1_1/expanded_conv_7_add_1/ArithmeticOptimizer/AddOpsRewrite_Leaf_1_Add", "op": "AddN", "input": ["StatefulPartitionedCall/functional_1_1/expanded_conv_6_project_bn_1/batchnorm/add_1", "StatefulPartitionedCall/functional_1_1/expanded_conv_7_project_bn_1/batchnorm/mul_1"], "attr": {"N": {"i": "2"}, "T": {"type": "DT_FLOAT"}, "_grappler_ArithmeticOptimizer_AddOpsRewriteStage": {"b": true}}}, {"name": "StatefulPartitionedCall/functional_1_1/expanded_conv_7_add_1/ArithmeticOptimizer/AddOpsRewrite_Add", "op": "AddV2", "input": ["StatefulPartitionedCall/functional_1_1/expanded_conv_7_project_bn_1/batchnorm/sub", "StatefulPartitionedCall/functional_1_1/expanded_conv_7_add_1/ArithmeticOptimizer/AddOpsRewrite_Leaf_1_Add"], "attr": {"T": {"type": "DT_FLOAT"}, "_grappler_ArithmeticOptimizer_AddOpsRewriteStage": {"b": true}}}, {"name": "StatefulPartitionedCall/functional_1_1/expanded_conv_8_expand_bn_1/batchnorm/add_1", "op": "_FusedConv2D", "input": ["StatefulPartitionedCall/functional_1_1/expanded_conv_7_add_1/ArithmeticOptimizer/AddOpsRewrite_Add", "StatefulPartitionedCall/functional_1_1/expanded_conv_8_expand_1/convolution/merged_input", "StatefulPartitionedCall/functional_1_1/expanded_conv_8_expand_bn_1/batchnorm/sub"], "device": "/device:CPU:0", "attr": {"explicit_paddings": {"list": {}}, "filter_format": {"s": "SFdJTw=="}, "TArgs": {"list": {"type": ["DT_FLOAT"]}}, "fused_ops": {"list": {"s": ["Qmlhc0FkZA=="]}}, "leakyrelu_alpha": {"f": 0.2}, "epsilon": {"f": 0.0}, "strides": {"list": {"i": ["1", "1", "1", "1"]}}, "use_cudnn_on_gpu": {"b": true}, "num_args": {"i": "1"}, "T": {"type": "DT_FLOAT"}, "num_host_args": {"i": "0"}, "dilations": {"list": {"i": ["1", "1", "1", "1"]}}, "padding": {"s": "U0FNRQ=="}, "data_format": {"s": "TkhXQw=="}}}, {"name": "StatefulPartitionedCall/functional_1_1/activation_11_1/truediv", "op": "Mul", "input": ["ConstantFolding/StatefulPartitionedCall/functional_1_1/activation_11_1/truediv_recip", "StatefulPartitionedCall/functional_1_1/expanded_conv_8_expand_bn_1/batchnorm/add_1"], "attr": {"_grappler_ArithmeticOptimizer_MinimizeBroadcasts": {"b": true}, "T": {"type": "DT_FLOAT"}}}, {"name": "StatefulPartitionedCall/functional_1_1/activation_11_1/add", "op": "AddV2", "input": ["StatefulPartitionedCall/functional_1_1/expanded_conv_8_expand_bn_1/batchnorm/add_1", "StatefulPartitionedCall/functional_1_1/activation_11_1/Const"], "attr": {"T": {"type": "DT_FLOAT"}}}, {"name": "StatefulPartitionedCall/functional_1_1/activation_11_1/Relu6", "op": "Relu6", "input": ["StatefulPartitionedCall/functional_1_1/activation_11_1/add"], "attr": {"T": {"type": "DT_FLOAT"}}}, {"name": "StatefulPartitionedCall/functional_1_1/activation_11_1/mul", "op": "Mul", "input": ["StatefulPartitionedCall/functional_1_1/activation_11_1/truediv", "StatefulPartitionedCall/functional_1_1/activation_11_1/Relu6"], "attr": {"_grappler_ArithmeticOptimizer_MinimizeBroadcasts": {"b": true}, "T": {"type": "DT_FLOAT"}}}, {"name": "StatefulPartitionedCall/functional_1_1/expanded_conv_8_depthwise_pad_1/Pad", "op": "Pad", "input": ["StatefulPartitionedCall/functional_1_1/activation_11_1/mul", "StatefulPartitionedCall/functional_1_1/expanded_conv_8_depthwise_pad_1/Const"], "attr": {"T": {"type": "DT_FLOAT"}, "Tpaddings": {"type": "DT_INT32"}}}, {"name": "StatefulPartitionedCall/functional_1_1/expanded_conv_8_depthwise_1/depthwise", "op": "DepthwiseConv2dNative", "input": ["StatefulPartitionedCall/functional_1_1/expanded_conv_8_depthwise_pad_1/Pad", "StatefulPartitionedCall/functional_1_1/expanded_conv_8_depthwise_1/depthwise/ReadVariableOp"], "attr": {"T": {"type": "DT_FLOAT"}, "padding": {"s": "VkFMSUQ="}, "strides": {"list": {"i": ["1", "2", "2", "1"]}}, "explicit_paddings": {"list": {}}, "dilations": {"list": {"i": ["1", "1", "1", "1"]}}, "data_format": {"s": "TkhXQw=="}}}, {"name": "StatefulPartitionedCall/functional_1_1/expanded_conv_8_depthwise_bn_1/batchnorm/mul_1", "op": "Mul", "input": ["StatefulPartitionedCall/functional_1_1/expanded_conv_8_depthwise_1/depthwise", "StatefulPartitionedCall/functional_1_1/expanded_conv_8_depthwise_bn_1/batchnorm/mul"], "attr": {"T": {"type": "DT_FLOAT"}}}, {"name": "StatefulPartitionedCall/functional_1_1/expanded_conv_8_depthwise_bn_1/batchnorm/add_1", "op": "AddV2", "input": ["StatefulPartitionedCall/functional_1_1/expanded_conv_8_depthwise_bn_1/batchnorm/mul_1", "StatefulPartitionedCall/functional_1_1/expanded_conv_8_depthwise_bn_1/batchnorm/sub"], "attr": {"T": {"type": "DT_FLOAT"}}}, {"name": "StatefulPartitionedCall/functional_1_1/activation_12_1/truediv", "op": "Mul", "input": ["ConstantFolding/StatefulPartitionedCall/functional_1_1/activation_12_1/truediv_recip", "StatefulPartitionedCall/functional_1_1/expanded_conv_8_depthwise_bn_1/batchnorm/add_1"], "attr": {"T": {"type": "DT_FLOAT"}, "_grappler_ArithmeticOptimizer_MinimizeBroadcasts": {"b": true}}}, {"name": "StatefulPartitionedCall/functional_1_1/activation_12_1/add", "op": "AddV2", "input": ["StatefulPartitionedCall/functional_1_1/expanded_conv_8_depthwise_bn_1/batchnorm/add_1", "StatefulPartitionedCall/functional_1_1/activation_12_1/Const"], "attr": {"T": {"type": "DT_FLOAT"}}}, {"name": "StatefulPartitionedCall/functional_1_1/activation_12_1/Relu6", "op": "Relu6", "input": ["StatefulPartitionedCall/functional_1_1/activation_12_1/add"], "attr": {"T": {"type": "DT_FLOAT"}}}, {"name": "StatefulPartitionedCall/functional_1_1/activation_12_1/mul", "op": "Mul", "input": ["StatefulPartitionedCall/functional_1_1/activation_12_1/truediv", "StatefulPartitionedCall/functional_1_1/activation_12_1/Relu6"], "attr": {"T": {"type": "DT_FLOAT"}, "_grappler_ArithmeticOptimizer_MinimizeBroadcasts": {"b": true}}}, {"name": "StatefulPartitionedCall/functional_1_1/expanded_conv_8_squeeze_excite_avg_pool_1/Mean", "op": "Mean", "input": ["StatefulPartitionedCall/functional_1_1/activation_12_1/mul", "StatefulPartitionedCall/functional_1_1/expanded_conv_8_squeeze_excite_avg_pool_1/Mean/reduction_indices"], "attr": {"T": {"type": "DT_FLOAT"}, "keep_dims": {"b": true}, "Tidx": {"type": "DT_INT32"}}}, {"name": "StatefulPartitionedCall/functional_1_1/expanded_conv_8_squeeze_excite_relu_1/Relu", "op": "_FusedConv2D", "input": ["StatefulPartitionedCall/functional_1_1/expanded_conv_8_squeeze_excite_avg_pool_1/Mean", "StatefulPartitionedCall/functional_1_1/expanded_conv_8_squeeze_excite_conv_1/convolution/ReadVariableOp", "StatefulPartitionedCall/functional_1_1/expanded_conv_8_squeeze_excite_conv_1/Reshape"], "device": "/device:CPU:0", "attr": {"use_cudnn_on_gpu": {"b": true}, "epsilon": {"f": 0.0}, "num_args": {"i": "1"}, "leakyrelu_alpha": {"f": 0.2}, "filter_format": {"s": "SFdJTw=="}, "fused_ops": {"list": {"s": ["Qmlhc0FkZA==", "UmVsdQ=="]}}, "num_host_args": {"i": "0"}, "explicit_paddings": {"list": {}}, "data_format": {"s": "TkhXQw=="}, "T": {"type": "DT_FLOAT"}, "TArgs": {"list": {"type": ["DT_FLOAT"]}}, "padding": {"s": "U0FNRQ=="}, "strides": {"list": {"i": ["1", "1", "1", "1"]}}, "dilations": {"list": {"i": ["1", "1", "1", "1"]}}}}, {"name": "StatefulPartitionedCall/functional_1_1/re_lu_11_1/Relu6", "op": "_FusedConv2D", "input": ["StatefulPartitionedCall/functional_1_1/expanded_conv_8_squeeze_excite_relu_1/Relu", "StatefulPartitionedCall/functional_1_1/expanded_conv_8_squeeze_excite_conv_1_2/convolution/ReadVariableOp", "StatefulPartitionedCall/functional_1_1/expanded_conv_8_squeeze_excite_conv_1_2/add"], "device": "/device:CPU:0", "attr": {"TArgs": {"list": {"type": ["DT_FLOAT"]}}, "filter_format": {"s": "SFdJTw=="}, "use_cudnn_on_gpu": {"b": true}, "T": {"type": "DT_FLOAT"}, "epsilon": {"f": 0.0}, "strides": {"list": {"i": ["1", "1", "1", "1"]}}, "num_host_args": {"i": "0"}, "data_format": {"s": "TkhXQw=="}, "leakyrelu_alpha": {"f": 0.2}, "dilations": {"list": {"i": ["1", "1", "1", "1"]}}, "fused_ops": {"list": {"s": ["Qmlhc0FkZA==", "UmVsdTY="]}}, "padding": {"s": "U0FNRQ=="}, "explicit_paddings": {"list": {}}, "num_args": {"i": "1"}}}, {"name": "StatefulPartitionedCall/functional_1_1/Mul_6", "op": "Mul", "input": ["StatefulPartitionedCall/functional_1_1/Const_13", "StatefulPartitionedCall/functional_1_1/re_lu_11_1/Relu6"], "attr": {"_grappler_ArithmeticOptimizer_MinimizeBroadcasts": {"b": true}, "T": {"type": "DT_FLOAT"}}}, {"name": "StatefulPartitionedCall/functional_1_1/expanded_conv_8_squeeze_excite_mul_1/Mul", "op": "Mul", "input": ["StatefulPartitionedCall/functional_1_1/Mul_6", "StatefulPartitionedCall/functional_1_1/activation_12_1/mul"], "attr": {"_grappler_ArithmeticOptimizer_MinimizeBroadcasts": {"b": true}, "T": {"type": "DT_FLOAT"}}}, {"name": "StatefulPartitionedCall/functional_1_1/expanded_conv_8_project_bn_1/batchnorm/add_1", "op": "_FusedConv2D", "input": ["StatefulPartitionedCall/functional_1_1/expanded_conv_8_squeeze_excite_mul_1/Mul", "StatefulPartitionedCall/functional_1_1/expanded_conv_8_project_1/convolution/merged_input", "StatefulPartitionedCall/functional_1_1/expanded_conv_8_project_bn_1/batchnorm/sub"], "device": "/device:CPU:0", "attr": {"T": {"type": "DT_FLOAT"}, "epsilon": {"f": 0.0}, "TArgs": {"list": {"type": ["DT_FLOAT"]}}, "strides": {"list": {"i": ["1", "1", "1", "1"]}}, "filter_format": {"s": "SFdJTw=="}, "use_cudnn_on_gpu": {"b": true}, "num_args": {"i": "1"}, "data_format": {"s": "TkhXQw=="}, "fused_ops": {"list": {"s": ["Qmlhc0FkZA=="]}}, "padding": {"s": "U0FNRQ=="}, "dilations": {"list": {"i": ["1", "1", "1", "1"]}}, "num_host_args": {"i": "0"}, "leakyrelu_alpha": {"f": 0.2}, "explicit_paddings": {"list": {}}}}, {"name": "StatefulPartitionedCall/functional_1_1/expanded_conv_9_expand_bn_1/batchnorm/add_1", "op": "_FusedConv2D", "input": ["StatefulPartitionedCall/functional_1_1/expanded_conv_8_project_bn_1/batchnorm/add_1", "StatefulPartitionedCall/functional_1_1/expanded_conv_9_expand_1/convolution/merged_input", "StatefulPartitionedCall/functional_1_1/expanded_conv_9_expand_bn_1/batchnorm/sub"], "device": "/device:CPU:0", "attr": {"epsilon": {"f": 0.0}, "num_args": {"i": "1"}, "strides": {"list": {"i": ["1", "1", "1", "1"]}}, "TArgs": {"list": {"type": ["DT_FLOAT"]}}, "dilations": {"list": {"i": ["1", "1", "1", "1"]}}, "num_host_args": {"i": "0"}, "data_format": {"s": "TkhXQw=="}, "leakyrelu_alpha": {"f": 0.2}, "explicit_paddings": {"list": {}}, "filter_format": {"s": "SFdJTw=="}, "T": {"type": "DT_FLOAT"}, "use_cudnn_on_gpu": {"b": true}, "padding": {"s": "U0FNRQ=="}, "fused_ops": {"list": {"s": ["Qmlhc0FkZA=="]}}}}, {"name": "StatefulPartitionedCall/functional_1_1/activation_13_1/truediv", "op": "Mul", "input": ["ConstantFolding/StatefulPartitionedCall/functional_1_1/activation_13_1/truediv_recip", "StatefulPartitionedCall/functional_1_1/expanded_conv_9_expand_bn_1/batchnorm/add_1"], "attr": {"T": {"type": "DT_FLOAT"}, "_grappler_ArithmeticOptimizer_MinimizeBroadcasts": {"b": true}}}, {"name": "StatefulPartitionedCall/functional_1_1/activation_13_1/add", "op": "AddV2", "input": ["StatefulPartitionedCall/functional_1_1/expanded_conv_9_expand_bn_1/batchnorm/add_1", "StatefulPartitionedCall/functional_1_1/activation_13_1/Const"], "attr": {"T": {"type": "DT_FLOAT"}}}, {"name": "StatefulPartitionedCall/functional_1_1/activation_13_1/Relu6", "op": "Relu6", "input": ["StatefulPartitionedCall/functional_1_1/activation_13_1/add"], "attr": {"T": {"type": "DT_FLOAT"}}}, {"name": "StatefulPartitionedCall/functional_1_1/activation_13_1/mul", "op": "Mul", "input": ["StatefulPartitionedCall/functional_1_1/activation_13_1/truediv", "StatefulPartitionedCall/functional_1_1/activation_13_1/Relu6"], "attr": {"_grappler_ArithmeticOptimizer_MinimizeBroadcasts": {"b": true}, "T": {"type": "DT_FLOAT"}}}, {"name": "StatefulPartitionedCall/functional_1_1/expanded_conv_9_depthwise_1/depthwise", "op": "DepthwiseConv2dNative", "input": ["StatefulPartitionedCall/functional_1_1/activation_13_1/mul", "StatefulPartitionedCall/functional_1_1/expanded_conv_9_depthwise_1/depthwise/ReadVariableOp"], "attr": {"data_format": {"s": "TkhXQw=="}, "strides": {"list": {"i": ["1", "1", "1", "1"]}}, "explicit_paddings": {"list": {}}, "dilations": {"list": {"i": ["1", "1", "1", "1"]}}, "padding": {"s": "U0FNRQ=="}, "T": {"type": "DT_FLOAT"}}}, {"name": "StatefulPartitionedCall/functional_1_1/expanded_conv_9_depthwise_bn_1/batchnorm/mul_1", "op": "Mul", "input": ["StatefulPartitionedCall/functional_1_1/expanded_conv_9_depthwise_1/depthwise", "StatefulPartitionedCall/functional_1_1/expanded_conv_9_depthwise_bn_1/batchnorm/mul"], "attr": {"T": {"type": "DT_FLOAT"}}}, {"name": "StatefulPartitionedCall/functional_1_1/expanded_conv_9_depthwise_bn_1/batchnorm/add_1", "op": "AddV2", "input": ["StatefulPartitionedCall/functional_1_1/expanded_conv_9_depthwise_bn_1/batchnorm/mul_1", "StatefulPartitionedCall/functional_1_1/expanded_conv_9_depthwise_bn_1/batchnorm/sub"], "attr": {"T": {"type": "DT_FLOAT"}}}, {"name": "StatefulPartitionedCall/functional_1_1/activation_14_1/truediv", "op": "Mul", "input": ["ConstantFolding/StatefulPartitionedCall/functional_1_1/activation_14_1/truediv_recip", "StatefulPartitionedCall/functional_1_1/expanded_conv_9_depthwise_bn_1/batchnorm/add_1"], "attr": {"T": {"type": "DT_FLOAT"}, "_grappler_ArithmeticOptimizer_MinimizeBroadcasts": {"b": true}}}, {"name": "StatefulPartitionedCall/functional_1_1/activation_14_1/add", "op": "AddV2", "input": ["StatefulPartitionedCall/functional_1_1/expanded_conv_9_depthwise_bn_1/batchnorm/add_1", "StatefulPartitionedCall/functional_1_1/activation_14_1/Const"], "attr": {"T": {"type": "DT_FLOAT"}}}, {"name": "StatefulPartitionedCall/functional_1_1/activation_14_1/Relu6", "op": "Relu6", "input": ["StatefulPartitionedCall/functional_1_1/activation_14_1/add"], "attr": {"T": {"type": "DT_FLOAT"}}}, {"name": "StatefulPartitionedCall/functional_1_1/activation_14_1/mul", "op": "Mul", "input": ["StatefulPartitionedCall/functional_1_1/activation_14_1/truediv", "StatefulPartitionedCall/functional_1_1/activation_14_1/Relu6"], "attr": {"_grappler_ArithmeticOptimizer_MinimizeBroadcasts": {"b": true}, "T": {"type": "DT_FLOAT"}}}, {"name": "StatefulPartitionedCall/functional_1_1/expanded_conv_9_squeeze_excite_avg_pool_1/Mean", "op": "Mean", "input": ["StatefulPartitionedCall/functional_1_1/activation_14_1/mul", "StatefulPartitionedCall/functional_1_1/expanded_conv_9_squeeze_excite_avg_pool_1/Mean/reduction_indices"], "attr": {"T": {"type": "DT_FLOAT"}, "keep_dims": {"b": true}, "Tidx": {"type": "DT_INT32"}}}, {"name": "StatefulPartitionedCall/functional_1_1/expanded_conv_9_squeeze_excite_relu_1/Relu", "op": "_FusedConv2D", "input": ["StatefulPartitionedCall/functional_1_1/expanded_conv_9_squeeze_excite_avg_pool_1/Mean", "StatefulPartitionedCall/functional_1_1/expanded_conv_9_squeeze_excite_conv_1/convolution/ReadVariableOp", "StatefulPartitionedCall/functional_1_1/expanded_conv_9_squeeze_excite_conv_1/Reshape"], "device": "/device:CPU:0", "attr": {"dilations": {"list": {"i": ["1", "1", "1", "1"]}}, "epsilon": {"f": 0.0}, "padding": {"s": "U0FNRQ=="}, "data_format": {"s": "TkhXQw=="}, "filter_format": {"s": "SFdJTw=="}, "use_cudnn_on_gpu": {"b": true}, "strides": {"list": {"i": ["1", "1", "1", "1"]}}, "TArgs": {"list": {"type": ["DT_FLOAT"]}}, "explicit_paddings": {"list": {}}, "num_args": {"i": "1"}, "num_host_args": {"i": "0"}, "T": {"type": "DT_FLOAT"}, "fused_ops": {"list": {"s": ["Qmlhc0FkZA==", "UmVsdQ=="]}}, "leakyrelu_alpha": {"f": 0.2}}}, {"name": "StatefulPartitionedCall/functional_1_1/re_lu_12_1/Relu6", "op": "_FusedConv2D", "input": ["StatefulPartitionedCall/functional_1_1/expanded_conv_9_squeeze_excite_relu_1/Relu", "StatefulPartitionedCall/functional_1_1/expanded_conv_9_squeeze_excite_conv_1_2/convolution/ReadVariableOp", "StatefulPartitionedCall/functional_1_1/expanded_conv_9_squeeze_excite_conv_1_2/add"], "device": "/device:CPU:0", "attr": {"filter_format": {"s": "SFdJTw=="}, "num_args": {"i": "1"}, "TArgs": {"list": {"type": ["DT_FLOAT"]}}, "use_cudnn_on_gpu": {"b": true}, "num_host_args": {"i": "0"}, "padding": {"s": "U0FNRQ=="}, "explicit_paddings": {"list": {}}, "leakyrelu_alpha": {"f": 0.2}, "epsilon": {"f": 0.0}, "fused_ops": {"list": {"s": ["Qmlhc0FkZA==", "UmVsdTY="]}}, "dilations": {"list": {"i": ["1", "1", "1", "1"]}}, "T": {"type": "DT_FLOAT"}, "data_format": {"s": "TkhXQw=="}, "strides": {"list": {"i": ["1", "1", "1", "1"]}}}}, {"name": "StatefulPartitionedCall/functional_1_1/Mul_7", "op": "Mul", "input": ["StatefulPartitionedCall/functional_1_1/Const_15", "StatefulPartitionedCall/functional_1_1/re_lu_12_1/Relu6"], "attr": {"T": {"type": "DT_FLOAT"}, "_grappler_ArithmeticOptimizer_MinimizeBroadcasts": {"b": true}}}, {"name": "StatefulPartitionedCall/functional_1_1/expanded_conv_9_squeeze_excite_mul_1/Mul", "op": "Mul", "input": ["StatefulPartitionedCall/functional_1_1/Mul_7", "StatefulPartitionedCall/functional_1_1/activation_14_1/mul"], "attr": {"_grappler_ArithmeticOptimizer_MinimizeBroadcasts": {"b": true}, "T": {"type": "DT_FLOAT"}}}, {"name": "StatefulPartitionedCall/functional_1_1/expanded_conv_9_project_bn_1/batchnorm/mul_1", "op": "Conv2D", "input": ["StatefulPartitionedCall/functional_1_1/expanded_conv_9_squeeze_excite_mul_1/Mul", "StatefulPartitionedCall/functional_1_1/expanded_conv_9_project_1/convolution/merged_input"], "device": "/device:CPU:0", "attr": {"dilations": {"list": {"i": ["1", "1", "1", "1"]}}, "padding": {"s": "U0FNRQ=="}, "explicit_paddings": {"list": {}}, "strides": {"list": {"i": ["1", "1", "1", "1"]}}, "T": {"type": "DT_FLOAT"}, "use_cudnn_on_gpu": {"b": true}, "data_format": {"s": "TkhXQw=="}}}, {"name": "StatefulPartitionedCall/functional_1_1/expanded_conv_9_add_1/ArithmeticOptimizer/AddOpsRewrite_Leaf_1_Add", "op": "AddN", "input": ["StatefulPartitionedCall/functional_1_1/expanded_conv_8_project_bn_1/batchnorm/add_1", "StatefulPartitionedCall/functional_1_1/expanded_conv_9_project_bn_1/batchnorm/mul_1"], "attr": {"N": {"i": "2"}, "_grappler_ArithmeticOptimizer_AddOpsRewriteStage": {"b": true}, "T": {"type": "DT_FLOAT"}}}, {"name": "StatefulPartitionedCall/functional_1_1/expanded_conv_9_add_1/ArithmeticOptimizer/AddOpsRewrite_Add", "op": "AddV2", "input": ["StatefulPartitionedCall/functional_1_1/expanded_conv_9_project_bn_1/batchnorm/sub", "StatefulPartitionedCall/functional_1_1/expanded_conv_9_add_1/ArithmeticOptimizer/AddOpsRewrite_Leaf_1_Add"], "attr": {"T": {"type": "DT_FLOAT"}, "_grappler_ArithmeticOptimizer_AddOpsRewriteStage": {"b": true}}}, {"name": "StatefulPartitionedCall/functional_1_1/expanded_conv_10_expand_bn_1/batchnorm/add_1", "op": "_FusedConv2D", "input": ["StatefulPartitionedCall/functional_1_1/expanded_conv_9_add_1/ArithmeticOptimizer/AddOpsRewrite_Add", "StatefulPartitionedCall/functional_1_1/expanded_conv_10_expand_1/convolution/merged_input", "StatefulPartitionedCall/functional_1_1/expanded_conv_10_expand_bn_1/batchnorm/sub"], "device": "/device:CPU:0", "attr": {"strides": {"list": {"i": ["1", "1", "1", "1"]}}, "num_args": {"i": "1"}, "TArgs": {"list": {"type": ["DT_FLOAT"]}}, "filter_format": {"s": "SFdJTw=="}, "epsilon": {"f": 0.0}, "fused_ops": {"list": {"s": ["Qmlhc0FkZA=="]}}, "leakyrelu_alpha": {"f": 0.2}, "data_format": {"s": "TkhXQw=="}, "dilations": {"list": {"i": ["1", "1", "1", "1"]}}, "padding": {"s": "U0FNRQ=="}, "explicit_paddings": {"list": {}}, "use_cudnn_on_gpu": {"b": true}, "num_host_args": {"i": "0"}, "T": {"type": "DT_FLOAT"}}}, {"name": "StatefulPartitionedCall/functional_1_1/activation_15_1/truediv", "op": "Mul", "input": ["ConstantFolding/StatefulPartitionedCall/functional_1_1/activation_15_1/truediv_recip", "StatefulPartitionedCall/functional_1_1/expanded_conv_10_expand_bn_1/batchnorm/add_1"], "attr": {"_grappler_ArithmeticOptimizer_MinimizeBroadcasts": {"b": true}, "T": {"type": "DT_FLOAT"}}}, {"name": "StatefulPartitionedCall/functional_1_1/activation_15_1/add", "op": "AddV2", "input": ["StatefulPartitionedCall/functional_1_1/expanded_conv_10_expand_bn_1/batchnorm/add_1", "StatefulPartitionedCall/functional_1_1/activation_15_1/Const"], "attr": {"T": {"type": "DT_FLOAT"}}}, {"name": "StatefulPartitionedCall/functional_1_1/activation_15_1/Relu6", "op": "Relu6", "input": ["StatefulPartitionedCall/functional_1_1/activation_15_1/add"], "attr": {"T": {"type": "DT_FLOAT"}}}, {"name": "StatefulPartitionedCall/functional_1_1/activation_15_1/mul", "op": "Mul", "input": ["StatefulPartitionedCall/functional_1_1/activation_15_1/truediv", "StatefulPartitionedCall/functional_1_1/activation_15_1/Relu6"], "attr": {"_grappler_ArithmeticOptimizer_MinimizeBroadcasts": {"b": true}, "T": {"type": "DT_FLOAT"}}}, {"name": "StatefulPartitionedCall/functional_1_1/expanded_conv_10_depthwise_1/depthwise", "op": "DepthwiseConv2dNative", "input": ["StatefulPartitionedCall/functional_1_1/activation_15_1/mul", "StatefulPartitionedCall/functional_1_1/expanded_conv_10_depthwise_1/depthwise/ReadVariableOp"], "attr": {"padding": {"s": "U0FNRQ=="}, "dilations": {"list": {"i": ["1", "1", "1", "1"]}}, "data_format": {"s": "TkhXQw=="}, "explicit_paddings": {"list": {}}, "strides": {"list": {"i": ["1", "1", "1", "1"]}}, "T": {"type": "DT_FLOAT"}}}, {"name": "StatefulPartitionedCall/functional_1_1/expanded_conv_10_depthwise_bn_1/batchnorm/mul_1", "op": "Mul", "input": ["StatefulPartitionedCall/functional_1_1/expanded_conv_10_depthwise_1/depthwise", "StatefulPartitionedCall/functional_1_1/expanded_conv_10_depthwise_bn_1/batchnorm/mul"], "attr": {"T": {"type": "DT_FLOAT"}}}, {"name": "StatefulPartitionedCall/functional_1_1/expanded_conv_10_depthwise_bn_1/batchnorm/add_1", "op": "AddV2", "input": ["StatefulPartitionedCall/functional_1_1/expanded_conv_10_depthwise_bn_1/batchnorm/mul_1", "StatefulPartitionedCall/functional_1_1/expanded_conv_10_depthwise_bn_1/batchnorm/sub"], "attr": {"T": {"type": "DT_FLOAT"}}}, {"name": "StatefulPartitionedCall/functional_1_1/activation_16_1/truediv", "op": "Mul", "input": ["ConstantFolding/StatefulPartitionedCall/functional_1_1/activation_16_1/truediv_recip", "StatefulPartitionedCall/functional_1_1/expanded_conv_10_depthwise_bn_1/batchnorm/add_1"], "attr": {"_grappler_ArithmeticOptimizer_MinimizeBroadcasts": {"b": true}, "T": {"type": "DT_FLOAT"}}}, {"name": "StatefulPartitionedCall/functional_1_1/activation_16_1/add", "op": "AddV2", "input": ["StatefulPartitionedCall/functional_1_1/expanded_conv_10_depthwise_bn_1/batchnorm/add_1", "StatefulPartitionedCall/functional_1_1/activation_16_1/Const"], "attr": {"T": {"type": "DT_FLOAT"}}}, {"name": "StatefulPartitionedCall/functional_1_1/activation_16_1/Relu6", "op": "Relu6", "input": ["StatefulPartitionedCall/functional_1_1/activation_16_1/add"], "attr": {"T": {"type": "DT_FLOAT"}}}, {"name": "StatefulPartitionedCall/functional_1_1/activation_16_1/mul", "op": "Mul", "input": ["StatefulPartitionedCall/functional_1_1/activation_16_1/truediv", "StatefulPartitionedCall/functional_1_1/activation_16_1/Relu6"], "attr": {"_grappler_ArithmeticOptimizer_MinimizeBroadcasts": {"b": true}, "T": {"type": "DT_FLOAT"}}}, {"name": "StatefulPartitionedCall/functional_1_1/expanded_conv_10_squeeze_excite_avg_pool_1/Mean", "op": "Mean", "input": ["StatefulPartitionedCall/functional_1_1/activation_16_1/mul", "StatefulPartitionedCall/functional_1_1/expanded_conv_10_squeeze_excite_avg_pool_1/Mean/reduction_indices"], "attr": {"Tidx": {"type": "DT_INT32"}, "T": {"type": "DT_FLOAT"}, "keep_dims": {"b": true}}}, {"name": "StatefulPartitionedCall/functional_1_1/expanded_conv_10_squeeze_excite_relu_1/Relu", "op": "_FusedConv2D", "input": ["StatefulPartitionedCall/functional_1_1/expanded_conv_10_squeeze_excite_avg_pool_1/Mean", "StatefulPartitionedCall/functional_1_1/expanded_conv_10_squeeze_excite_conv_1/convolution/ReadVariableOp", "StatefulPartitionedCall/functional_1_1/expanded_conv_10_squeeze_excite_conv_1/Reshape"], "device": "/device:CPU:0", "attr": {"dilations": {"list": {"i": ["1", "1", "1", "1"]}}, "explicit_paddings": {"list": {}}, "padding": {"s": "U0FNRQ=="}, "fused_ops": {"list": {"s": ["Qmlhc0FkZA==", "UmVsdQ=="]}}, "num_host_args": {"i": "0"}, "strides": {"list": {"i": ["1", "1", "1", "1"]}}, "num_args": {"i": "1"}, "TArgs": {"list": {"type": ["DT_FLOAT"]}}, "T": {"type": "DT_FLOAT"}, "use_cudnn_on_gpu": {"b": true}, "epsilon": {"f": 0.0}, "filter_format": {"s": "SFdJTw=="}, "leakyrelu_alpha": {"f": 0.2}, "data_format": {"s": "TkhXQw=="}}}, {"name": "StatefulPartitionedCall/functional_1_1/re_lu_13_1/Relu6", "op": "_FusedConv2D", "input": ["StatefulPartitionedCall/functional_1_1/expanded_conv_10_squeeze_excite_relu_1/Relu", "StatefulPartitionedCall/functional_1_1/expanded_conv_10_squeeze_excite_conv_1_2/convolution/ReadVariableOp", "StatefulPartitionedCall/functional_1_1/expanded_conv_10_squeeze_excite_conv_1_2/add"], "device": "/device:CPU:0", "attr": {"dilations": {"list": {"i": ["1", "1", "1", "1"]}}, "explicit_paddings": {"list": {}}, "num_host_args": {"i": "0"}, "leakyrelu_alpha": {"f": 0.2}, "filter_format": {"s": "SFdJTw=="}, "epsilon": {"f": 0.0}, "fused_ops": {"list": {"s": ["Qmlhc0FkZA==", "UmVsdTY="]}}, "use_cudnn_on_gpu": {"b": true}, "padding": {"s": "U0FNRQ=="}, "TArgs": {"list": {"type": ["DT_FLOAT"]}}, "T": {"type": "DT_FLOAT"}, "num_args": {"i": "1"}, "strides": {"list": {"i": ["1", "1", "1", "1"]}}, "data_format": {"s": "TkhXQw=="}}}, {"name": "StatefulPartitionedCall/functional_1_1/Mul_8", "op": "Mul", "input": ["StatefulPartitionedCall/functional_1_1/Const_17", "StatefulPartitionedCall/functional_1_1/re_lu_13_1/Relu6"], "attr": {"T": {"type": "DT_FLOAT"}, "_grappler_ArithmeticOptimizer_MinimizeBroadcasts": {"b": true}}}, {"name": "StatefulPartitionedCall/functional_1_1/expanded_conv_10_squeeze_excite_mul_1/Mul", "op": "Mul", "input": ["StatefulPartitionedCall/functional_1_1/Mul_8", "StatefulPartitionedCall/functional_1_1/activation_16_1/mul"], "attr": {"T": {"type": "DT_FLOAT"}, "_grappler_ArithmeticOptimizer_MinimizeBroadcasts": {"b": true}}}, {"name": "StatefulPartitionedCall/functional_1_1/expanded_conv_10_project_bn_1/batchnorm/mul_1", "op": "Conv2D", "input": ["StatefulPartitionedCall/functional_1_1/expanded_conv_10_squeeze_excite_mul_1/Mul", "StatefulPartitionedCall/functional_1_1/expanded_conv_10_project_1/convolution/merged_input"], "device": "/device:CPU:0", "attr": {"dilations": {"list": {"i": ["1", "1", "1", "1"]}}, "explicit_paddings": {"list": {}}, "padding": {"s": "U0FNRQ=="}, "T": {"type": "DT_FLOAT"}, "use_cudnn_on_gpu": {"b": true}, "data_format": {"s": "TkhXQw=="}, "strides": {"list": {"i": ["1", "1", "1", "1"]}}}}, {"name": "StatefulPartitionedCall/functional_1_1/expanded_conv_10_add_1/ArithmeticOptimizer/AddOpsRewrite_Leaf_1_Add", "op": "AddN", "input": ["StatefulPartitionedCall/functional_1_1/expanded_conv_9_add_1/ArithmeticOptimizer/AddOpsRewrite_Add", "StatefulPartitionedCall/functional_1_1/expanded_conv_10_project_bn_1/batchnorm/mul_1"], "attr": {"_grappler_ArithmeticOptimizer_AddOpsRewriteStage": {"b": true}, "T": {"type": "DT_FLOAT"}, "N": {"i": "2"}}}, {"name": "StatefulPartitionedCall/functional_1_1/expanded_conv_10_add_1/ArithmeticOptimizer/AddOpsRewrite_Add", "op": "AddV2", "input": ["StatefulPartitionedCall/functional_1_1/expanded_conv_10_project_bn_1/batchnorm/sub", "StatefulPartitionedCall/functional_1_1/expanded_conv_10_add_1/ArithmeticOptimizer/AddOpsRewrite_Leaf_1_Add"], "attr": {"_grappler_ArithmeticOptimizer_AddOpsRewriteStage": {"b": true}, "T": {"type": "DT_FLOAT"}}}, {"name": "StatefulPartitionedCall/functional_1_1/conv_1_bn_1/batchnorm/add_1", "op": "_FusedConv2D", "input": ["StatefulPartitionedCall/functional_1_1/expanded_conv_10_add_1/ArithmeticOptimizer/AddOpsRewrite_Add", "StatefulPartitionedCall/functional_1_1/conv_1_2/convolution/merged_input", "StatefulPartitionedCall/functional_1_1/conv_1_bn_1/batchnorm/sub"], "device": "/device:CPU:0", "attr": {"epsilon": {"f": 0.0}, "TArgs": {"list": {"type": ["DT_FLOAT"]}}, "filter_format": {"s": "SFdJTw=="}, "use_cudnn_on_gpu": {"b": true}, "explicit_paddings": {"list": {}}, "leakyrelu_alpha": {"f": 0.2}, "padding": {"s": "U0FNRQ=="}, "num_host_args": {"i": "0"}, "num_args": {"i": "1"}, "strides": {"list": {"i": ["1", "1", "1", "1"]}}, "fused_ops": {"list": {"s": ["Qmlhc0FkZA=="]}}, "data_format": {"s": "TkhXQw=="}, "T": {"type": "DT_FLOAT"}, "dilations": {"list": {"i": ["1", "1", "1", "1"]}}}}, {"name": "StatefulPartitionedCall/functional_1_1/activation_17_1/truediv", "op": "Mul", "input": ["ConstantFolding/StatefulPartitionedCall/functional_1_1/activation_17_1/truediv_recip", "StatefulPartitionedCall/functional_1_1/conv_1_bn_1/batchnorm/add_1"], "attr": {"_grappler_ArithmeticOptimizer_MinimizeBroadcasts": {"b": true}, "T": {"type": "DT_FLOAT"}}}, {"name": "StatefulPartitionedCall/functional_1_1/activation_17_1/add", "op": "AddV2", "input": ["StatefulPartitionedCall/functional_1_1/conv_1_bn_1/batchnorm/add_1", "StatefulPartitionedCall/functional_1_1/activation_17_1/Const"], "attr": {"T": {"type": "DT_FLOAT"}}}, {"name": "StatefulPartitionedCall/functional_1_1/activation_17_1/Relu6", "op": "Relu6", "input": ["StatefulPartitionedCall/functional_1_1/activation_17_1/add"], "attr": {"T": {"type": "DT_FLOAT"}}}, {"name": "StatefulPartitionedCall/functional_1_1/activation_17_1/mul", "op": "Mul", "input": ["StatefulPartitionedCall/functional_1_1/activation_17_1/truediv", "StatefulPartitionedCall/functional_1_1/activation_17_1/Relu6"], "attr": {"T": {"type": "DT_FLOAT"}, "_grappler_ArithmeticOptimizer_MinimizeBroadcasts": {"b": true}}}, {"name": "StatefulPartitionedCall/functional_1_1/global_average_pooling2d_1/Mean", "op": "Mean", "input": ["StatefulPartitionedCall/functional_1_1/activation_17_1/mul", "StatefulPartitionedCall/functional_1_1/global_average_pooling2d_1/Mean/reduction_indices"], "attr": {"T": {"type": "DT_FLOAT"}, "Tidx": {"type": "DT_INT32"}, "keep_dims": {"b": true}}}, {"name": "StatefulPartitionedCall/functional_1_1/conv_2_1/add", "op": "_FusedConv2D", "input": ["StatefulPartitionedCall/functional_1_1/global_average_pooling2d_1/Mean", "StatefulPartitionedCall/functional_1_1/conv_2_1/convolution/ReadVariableOp", "StatefulPartitionedCall/functional_1_1/conv_2_1/Reshape"], "device": "/device:CPU:0", "attr": {"TArgs": {"list": {"type": ["DT_FLOAT"]}}, "epsilon": {"f": 0.0}, "num_args": {"i": "1"}, "leakyrelu_alpha": {"f": 0.2}, "use_cudnn_on_gpu": {"b": true}, "strides": {"list": {"i": ["1", "1", "1", "1"]}}, "filter_format": {"s": "SFdJTw=="}, "fused_ops": {"list": {"s": ["Qmlhc0FkZA=="]}}, "T": {"type": "DT_FLOAT"}, "explicit_paddings": {"list": {}}, "padding": {"s": "U0FNRQ=="}, "num_host_args": {"i": "0"}, "dilations": {"list": {"i": ["1", "1", "1", "1"]}}, "data_format": {"s": "TkhXQw=="}}}, {"name": "StatefulPartitionedCall/functional_1_1/activation_18_1/truediv", "op": "Mul", "input": ["ConstantFolding/StatefulPartitionedCall/functional_1_1/activation_18_1/truediv_recip", "StatefulPartitionedCall/functional_1_1/conv_2_1/add"], "attr": {"T": {"type": "DT_FLOAT"}, "_grappler_ArithmeticOptimizer_MinimizeBroadcasts": {"b": true}}}, {"name": "StatefulPartitionedCall/functional_1_1/activation_18_1/add", "op": "AddV2", "input": ["StatefulPartitionedCall/functional_1_1/conv_2_1/add", "StatefulPartitionedCall/functional_1_1/activation_18_1/Const"], "attr": {"T": {"type": "DT_FLOAT"}}}, {"name": "StatefulPartitionedCall/functional_1_1/activation_18_1/Relu6", "op": "Relu6", "input": ["StatefulPartitionedCall/functional_1_1/activation_18_1/add"], "attr": {"T": {"type": "DT_FLOAT"}}}, {"name": "StatefulPartitionedCall/functional_1_1/activation_18_1/mul", "op": "Mul", "input": ["StatefulPartitionedCall/functional_1_1/activation_18_1/truediv", "StatefulPartitionedCall/functional_1_1/activation_18_1/Relu6"], "attr": {"_grappler_ArithmeticOptimizer_MinimizeBroadcasts": {"b": true}, "T": {"type": "DT_FLOAT"}}}, {"name": "StatefulPartitionedCall/functional_1_1/logits_1/add", "op": "_FusedConv2D", "input": ["StatefulPartitionedCall/functional_1_1/activation_18_1/mul", "StatefulPartitionedCall/functional_1_1/logits_1/convolution/ReadVariableOp", "StatefulPartitionedCall/functional_1_1/logits_1/Reshape"], "device": "/device:CPU:0", "attr": {"strides": {"list": {"i": ["1", "1", "1", "1"]}}, "explicit_paddings": {"list": {}}, "data_format": {"s": "TkhXQw=="}, "filter_format": {"s": "SFdJTw=="}, "padding": {"s": "U0FNRQ=="}, "num_args": {"i": "1"}, "num_host_args": {"i": "0"}, "dilations": {"list": {"i": ["1", "1", "1", "1"]}}, "TArgs": {"list": {"type": ["DT_FLOAT"]}}, "leakyrelu_alpha": {"f": 0.2}, "use_cudnn_on_gpu": {"b": true}, "fused_ops": {"list": {"s": ["Qmlhc0FkZA=="]}}, "T": {"type": "DT_FLOAT"}, "epsilon": {"f": 0.0}}}, {"name": "StatefulPartitionedCall/functional_1_1/flatten_1/Reshape", "op": "Reshape", "input": ["StatefulPartitionedCall/functional_1_1/logits_1/add", "StatefulPartitionedCall/functional_1_1/flatten_1/Reshape/shape"], "attr": {"T": {"type": "DT_FLOAT"}, "Tshape": {"type": "DT_INT32"}}}, {"name": "StatefulPartitionedCall/functional_1_1/dense_1/Add", "op": "_FusedMatMul", "input": ["StatefulPartitionedCall/functional_1_1/flatten_1/Reshape", "StatefulPartitionedCall/functional_1_1/dense_1/Cast/ReadVariableOp", "StatefulPartitionedCall/functional_1_1/dense_1/Add/ReadVariableOp"], "device": "/device:CPU:0", "attr": {"epsilon": {"f": 0.0}, "transpose_b": {"b": false}, "transpose_a": {"b": false}, "num_args": {"i": "1"}, "fused_ops": {"list": {"s": ["Qmlhc0FkZA=="]}}, "leakyrelu_alpha": {"f": 0.2}, "T": {"type": "DT_FLOAT"}}}, {"name": "StatefulPartitionedCall/functional_1_1/dense_1/Softmax", "op": "Softmax", "input": ["StatefulPartitionedCall/functional_1_1/dense_1/Add"], "attr": {"T": {"type": "DT_FLOAT"}}}, {"name": "Identity", "op": "Identity", "input": ["StatefulPartitionedCall/functional_1_1/dense_1/Softmax"], "attr": {"T": {"type": "DT_FLOAT"}}}], "library": {}, "versions": {"producer": 1766}}, "weightsManifest": [{"paths": ["group1-shard1of3.bin", "group1-shard2of3.bin", "group1-shard3of3.bin"], "weights": [{"name": "ConstantFolding/StatefulPartitionedCall/functional_1_1/activation_18_1/truediv_recip", "shape": [], "dtype": "float32"}, {"name": "ConstantFolding/StatefulPartitionedCall/functional_1_1/activation_17_1/truediv_recip", "shape": [], "dtype": "float32"}, {"name": "StatefulPartitionedCall/functional_1_1/expanded_conv_10_project_bn_1/batchnorm/sub", "shape": [96], "dtype": "float32"}, {"name": "StatefulPartitionedCall/functional_1_1/Const_17", "shape": [], "dtype": "float32"}, {"name": "StatefulPartitionedCall/functional_1_1/expanded_conv_10_squeeze_excite_avg_pool_1/Mean/reduction_indices", "shape": [2], "dtype": "int32"}, {"name": "StatefulPartitionedCall/functional_1_1/expanded_conv_10_squeeze_excite_conv_1/convolution/ReadVariableOp", "shape": [1, 1, 576, 144], "dtype": "float32"}, {"name": "StatefulPartitionedCall/functional_1_1/expanded_conv_10_squeeze_excite_conv_1/Reshape", "shape": [1, 1, 1, 144], "dtype": "float32"}, {"name": "StatefulPartitionedCall/functional_1_1/expanded_conv_10_squeeze_excite_conv_1_2/convolution/ReadVariableOp", "shape": [1, 1, 144, 576], "dtype": "float32"}, {"name": "StatefulPartitionedCall/functional_1_1/expanded_conv_10_squeeze_excite_conv_1_2/add", "shape": [1, 1, 1, 576], "dtype": "float32"}, {"name": "ConstantFolding/StatefulPartitionedCall/functional_1_1/activation_16_1/truediv_recip", "shape": [], "dtype": "float32"}, {"name": "ConstantFolding/StatefulPartitionedCall/functional_1_1/activation_15_1/truediv_recip", "shape": [], "dtype": "float32"}, {"name": "StatefulPartitionedCall/functional_1_1/expanded_conv_9_project_bn_1/batchnorm/sub", "shape": [96], "dtype": "float32"}, {"name": "StatefulPartitionedCall/functional_1_1/Const_15", "shape": [], "dtype": "float32"}, {"name": "StatefulPartitionedCall/functional_1_1/expanded_conv_9_squeeze_excite_avg_pool_1/Mean/reduction_indices", "shape": [2], "dtype": "int32"}, {"name": "StatefulPartitionedCall/functional_1_1/expanded_conv_9_squeeze_excite_conv_1/convolution/ReadVariableOp", "shape": [1, 1, 576, 144], "dtype": "float32"}, {"name": "StatefulPartitionedCall/functional_1_1/expanded_conv_9_squeeze_excite_conv_1/Reshape", "shape": [1, 1, 1, 144], "dtype": "float32"}, {"name": "StatefulPartitionedCall/functional_1_1/expanded_conv_9_squeeze_excite_conv_1_2/convolution/ReadVariableOp", "shape": [1, 1, 144, 576], "dtype": "float32"}, {"name": "StatefulPartitionedCall/functional_1_1/expanded_conv_9_squeeze_excite_conv_1_2/add", "shape": [1, 1, 1, 576], "dtype": "float32"}, {"name": "ConstantFolding/StatefulPartitionedCall/functional_1_1/activation_14_1/truediv_recip", "shape": [], "dtype": "float32"}, {"name": "ConstantFolding/StatefulPartitionedCall/functional_1_1/activation_13_1/truediv_recip", "shape": [], "dtype": "float32"}, {"name": "StatefulPartitionedCall/functional_1_1/Const_13", "shape": [], "dtype": "float32"}, {"name": "StatefulPartitionedCall/functional_1_1/expanded_conv_8_squeeze_excite_avg_pool_1/Mean/reduction_indices", "shape": [2], "dtype": "int32"}, {"name": "StatefulPartitionedCall/functional_1_1/expanded_conv_8_squeeze_excite_conv_1/convolution/ReadVariableOp", "shape": [1, 1, 288, 72], "dtype": "float32"}, {"name": "StatefulPartitionedCall/functional_1_1/expanded_conv_8_squeeze_excite_conv_1/Reshape", "shape": [1, 1, 1, 72], "dtype": "float32"}, {"name": "StatefulPartitionedCall/functional_1_1/expanded_conv_8_squeeze_excite_conv_1_2/convolution/ReadVariableOp", "shape": [1, 1, 72, 288], "dtype": "float32"}, {"name": "StatefulPartitionedCall/functional_1_1/expanded_conv_8_squeeze_excite_conv_1_2/add", "shape": [1, 1, 1, 288], "dtype": "float32"}, {"name": "ConstantFolding/StatefulPartitionedCall/functional_1_1/activation_12_1/truediv_recip", "shape": [], "dtype": "float32"}, {"name": "ConstantFolding/StatefulPartitionedCall/functional_1_1/activation_11_1/truediv_recip", "shape": [], "dtype": "float32"}, {"name": "StatefulPartitionedCall/functional_1_1/expanded_conv_7_project_bn_1/batchnorm/sub", "shape": [48], "dtype": "float32"}, {"name": "StatefulPartitionedCall/functional_1_1/Const_11", "shape": [], "dtype": "float32"}, {"name": "StatefulPartitionedCall/functional_1_1/expanded_conv_7_squeeze_excite_avg_pool_1/Mean/reduction_indices", "shape": [2], "dtype": "int32"}, {"name": "StatefulPartitionedCall/functional_1_1/expanded_conv_7_squeeze_excite_conv_1/convolution/ReadVariableOp", "shape": [1, 1, 144, 40], "dtype": "float32"}, {"name": "StatefulPartitionedCall/functional_1_1/expanded_conv_7_squeeze_excite_conv_1/Reshape", "shape": [1, 1, 1, 40], "dtype": "float32"}, {"name": "StatefulPartitionedCall/functional_1_1/expanded_conv_7_squeeze_excite_conv_1_2/convolution/ReadVariableOp", "shape": [1, 1, 40, 144], "dtype": "float32"}, {"name": "StatefulPartitionedCall/functional_1_1/expanded_conv_7_squeeze_excite_conv_1_2/add", "shape": [1, 1, 1, 144], "dtype": "float32"}, {"name": "ConstantFolding/StatefulPartitionedCall/functional_1_1/activation_10_1/truediv_recip", "shape": [], "dtype": "float32"}, {"name": "ConstantFolding/StatefulPartitionedCall/functional_1_1/activation_9_1/truediv_recip", "shape": [], "dtype": "float32"}, {"name": "StatefulPartitionedCall/functional_1_1/Const_9", "shape": [], "dtype": "float32"}, {"name": "StatefulPartitionedCall/functional_1_1/expanded_conv_6_squeeze_excite_avg_pool_1/Mean/reduction_indices", "shape": [2], "dtype": "int32"}, {"name": "StatefulPartitionedCall/functional_1_1/expanded_conv_6_squeeze_excite_conv_1/convolution/ReadVariableOp", "shape": [1, 1, 120, 32], "dtype": "float32"}, {"name": "StatefulPartitionedCall/functional_1_1/expanded_conv_6_squeeze_excite_conv_1/Reshape", "shape": [1, 1, 1, 32], "dtype": "float32"}, {"name": "StatefulPartitionedCall/functional_1_1/expanded_conv_6_squeeze_excite_conv_1_2/convolution/ReadVariableOp", "shape": [1, 1, 32, 120], "dtype": "float32"}, {"name": "StatefulPartitionedCall/functional_1_1/expanded_conv_6_squeeze_excite_conv_1_2/add", "shape": [1, 1, 1, 120], "dtype": "float32"}, {"name": "ConstantFolding/StatefulPartitionedCall/functional_1_1/activation_8_1/truediv_recip", "shape": [], "dtype": "float32"}, {"name": "ConstantFolding/StatefulPartitionedCall/functional_1_1/activation_7_1/truediv_recip", "shape": [], "dtype": "float32"}, {"name": "StatefulPartitionedCall/functional_1_1/expanded_conv_5_project_bn_1/batchnorm/sub", "shape": [40], "dtype": "float32"}, {"name": "StatefulPartitionedCall/functional_1_1/Const_7", "shape": [], "dtype": "float32"}, {"name": "StatefulPartitionedCall/functional_1_1/expanded_conv_5_squeeze_excite_avg_pool_1/Mean/reduction_indices", "shape": [2], "dtype": "int32"}, {"name": "StatefulPartitionedCall/functional_1_1/expanded_conv_5_squeeze_excite_conv_1/convolution/ReadVariableOp", "shape": [1, 1, 240, 64], "dtype": "float32"}, {"name": "StatefulPartitionedCall/functional_1_1/expanded_conv_5_squeeze_excite_conv_1/Reshape", "shape": [1, 1, 1, 64], "dtype": "float32"}, {"name": "StatefulPartitionedCall/functional_1_1/expanded_conv_5_squeeze_excite_conv_1_2/convolution/ReadVariableOp", "shape": [1, 1, 64, 240], "dtype": "float32"}, {"name": "StatefulPartitionedCall/functional_1_1/expanded_conv_5_squeeze_excite_conv_1_2/add", "shape": [1, 1, 1, 240], "dtype": "float32"}, {"name": "ConstantFolding/StatefulPartitionedCall/functional_1_1/activation_6_1/truediv_recip", "shape": [], "dtype": "float32"}, {"name": "ConstantFolding/StatefulPartitionedCall/functional_1_1/activation_5_1/truediv_recip", "shape": [], "dtype": "float32"}, {"name": "StatefulPartitionedCall/functional_1_1/expanded_conv_4_project_bn_1/batchnorm/sub", "shape": [40], "dtype": "float32"}, {"name": "StatefulPartitionedCall/functional_1_1/Const_5", "shape": [], "dtype": "float32"}, {"name": "StatefulPartitionedCall/functional_1_1/expanded_conv_4_squeeze_excite_avg_pool_1/Mean/reduction_indices", "shape": [2], "dtype": "int32"}, {"name": "StatefulPartitionedCall/functional_1_1/expanded_conv_4_squeeze_excite_conv_1/convolution/ReadVariableOp", "shape": [1, 1, 240, 64], "dtype": "float32"}, {"name": "StatefulPartitionedCall/functional_1_1/expanded_conv_4_squeeze_excite_conv_1/Reshape", "shape": [1, 1, 1, 64], "dtype": "float32"}, {"name": "StatefulPartitionedCall/functional_1_1/expanded_conv_4_squeeze_excite_conv_1_2/convolution/ReadVariableOp", "shape": [1, 1, 64, 240], "dtype": "float32"}, {"name": "StatefulPartitionedCall/functional_1_1/expanded_conv_4_squeeze_excite_conv_1_2/add", "shape": [1, 1, 1, 240], "dtype": "float32"}, {"name": "ConstantFolding/StatefulPartitionedCall/functional_1_1/activation_4_1/truediv_recip", "shape": [], "dtype": "float32"}, {"name": "ConstantFolding/StatefulPartitionedCall/functional_1_1/activation_3_1/truediv_recip", "shape": [], "dtype": "float32"}, {"name": "StatefulPartitionedCall/functional_1_1/Const_3", "shape": [], "dtype": "float32"}, {"name": "StatefulPartitionedCall/functional_1_1/expanded_conv_3_squeeze_excite_avg_pool_1/Mean/reduction_indices", "shape": [2], "dtype": "int32"}, {"name": "StatefulPartitionedCall/functional_1_1/expanded_conv_3_squeeze_excite_conv_1/convolution/ReadVariableOp", "shape": [1, 1, 96, 24], "dtype": "float32"}, {"name": "StatefulPartitionedCall/functional_1_1/expanded_conv_3_squeeze_excite_conv_1/Reshape", "shape": [1, 1, 1, 24], "dtype": "float32"}, {"name": "StatefulPartitionedCall/functional_1_1/expanded_conv_3_squeeze_excite_conv_1_2/convolution/ReadVariableOp", "shape": [1, 1, 24, 96], "dtype": "float32"}, {"name": "StatefulPartitionedCall/functional_1_1/expanded_conv_3_squeeze_excite_conv_1_2/add", "shape": [1, 1, 1, 96], "dtype": "float32"}, {"name": "ConstantFolding/StatefulPartitionedCall/functional_1_1/activation_2_1/truediv_recip", "shape": [], "dtype": "float32"}, {"name": "ConstantFolding/StatefulPartitionedCall/functional_1_1/activation_1_2/truediv_recip", "shape": [], "dtype": "float32"}, {"name": "StatefulPartitionedCall/functional_1_1/expanded_conv_2_project_bn_1/batchnorm/sub", "shape": [24], "dtype": "float32"}, {"name": "StatefulPartitionedCall/functional_1_1/Const_1", "shape": [], "dtype": "float32"}, {"name": "StatefulPartitionedCall/functional_1_1/expanded_conv_squeeze_excite_avg_pool_1/Mean/reduction_indices", "shape": [2], "dtype": "int32"}, {"name": "StatefulPartitionedCall/functional_1_1/expanded_conv_squeeze_excite_conv_1/convolution/ReadVariableOp", "shape": [1, 1, 16, 8], "dtype": "float32"}, {"name": "StatefulPartitionedCall/functional_1_1/expanded_conv_squeeze_excite_conv_1/Reshape", "shape": [1, 1, 1, 8], "dtype": "float32"}, {"name": "StatefulPartitionedCall/functional_1_1/expanded_conv_squeeze_excite_conv_1_2/convolution/ReadVariableOp", "shape": [1, 1, 8, 16], "dtype": "float32"}, {"name": "StatefulPartitionedCall/functional_1_1/expanded_conv_squeeze_excite_conv_1_2/add", "shape": [1, 1, 1, 16], "dtype": "float32"}, {"name": "ConstantFolding/StatefulPartitionedCall/functional_1_1/activation_1/truediv_recip", "shape": [], "dtype": "float32"}, {"name": "StatefulPartitionedCall/functional_1_1/rescaling_1/Cast/x", "shape": [], "dtype": "float32"}, {"name": "StatefulPartitionedCall/functional_1_1/rescaling_1/Cast_1/x", "shape": [], "dtype": "float32"}, {"name": "StatefulPartitionedCall/functional_1_1/conv_1/convolution/merged_input", "shape": [3, 3, 3, 16], "dtype": "float32"}, {"name": "StatefulPartitionedCall/functional_1_1/conv_bn_1/batchnorm/sub", "shape": [16], "dtype": "float32"}, {"name": "StatefulPartitionedCall/functional_1_1/activation_1/Const", "shape": [], "dtype": "float32"}, {"name": "StatefulPartitionedCall/functional_1_1/expanded_conv_depthwise_pad_1/Const", "shape": [4, 2], "dtype": "int32"}, {"name": "StatefulPartitionedCall/functional_1_1/expanded_conv_depthwise_1/depthwise/ReadVariableOp", "shape": [3, 3, 16, 1], "dtype": "float32"}, {"name": "StatefulPartitionedCall/functional_1_1/expanded_conv_depthwise_bn_1/batchnorm/mul", "shape": [16], "dtype": "float32"}, {"name": "StatefulPartitionedCall/functional_1_1/expanded_conv_depthwise_bn_1/batchnorm/sub", "shape": [16], "dtype": "float32"}, {"name": "StatefulPartitionedCall/functional_1_1/expanded_conv_project_1/convolution/merged_input", "shape": [1, 1, 16, 16], "dtype": "float32"}, {"name": "StatefulPartitionedCall/functional_1_1/expanded_conv_project_bn_1/batchnorm/sub", "shape": [16], "dtype": "float32"}, {"name": "StatefulPartitionedCall/functional_1_1/expanded_conv_1_expand_1/convolution/merged_input", "shape": [1, 1, 16, 72], "dtype": "float32"}, {"name": "StatefulPartitionedCall/functional_1_1/expanded_conv_1_expand_bn_1/batchnorm/sub", "shape": [72], "dtype": "float32"}, {"name": "StatefulPartitionedCall/functional_1_1/expanded_conv_1_depthwise_pad_1/Const", "shape": [4, 2], "dtype": "int32"}, {"name": "StatefulPartitionedCall/functional_1_1/expanded_conv_1_depthwise_1/depthwise/ReadVariableOp", "shape": [3, 3, 72, 1], "dtype": "float32"}, {"name": "StatefulPartitionedCall/functional_1_1/expanded_conv_1_depthwise_bn_1/batchnorm/mul", "shape": [72], "dtype": "float32"}, {"name": "StatefulPartitionedCall/functional_1_1/expanded_conv_1_depthwise_bn_1/batchnorm/sub", "shape": [72], "dtype": "float32"}, {"name": "StatefulPartitionedCall/functional_1_1/expanded_conv_1_project_1/convolution/merged_input", "shape": [1, 1, 72, 24], "dtype": "float32"}, {"name": "StatefulPartitionedCall/functional_1_1/expanded_conv_1_project_bn_1/batchnorm/sub", "shape": [24], "dtype": "float32"}, {"name": "StatefulPartitionedCall/functional_1_1/expanded_conv_2_expand_1/convolution/merged_input", "shape": [1, 1, 24, 88], "dtype": "float32"}, {"name": "StatefulPartitionedCall/functional_1_1/expanded_conv_2_expand_bn_1/batchnorm/sub", "shape": [88], "dtype": "float32"}, {"name": "StatefulPartitionedCall/functional_1_1/expanded_conv_2_depthwise_1/depthwise/ReadVariableOp", "shape": [3, 3, 88, 1], "dtype": "float32"}, {"name": "StatefulPartitionedCall/functional_1_1/expanded_conv_2_depthwise_bn_1/batchnorm/mul", "shape": [88], "dtype": "float32"}, {"name": "StatefulPartitionedCall/functional_1_1/expanded_conv_2_depthwise_bn_1/batchnorm/sub", "shape": [88], "dtype": "float32"}, {"name": "StatefulPartitionedCall/functional_1_1/expanded_conv_2_project_1/convolution/merged_input", "shape": [1, 1, 88, 24], "dtype": "float32"}, {"name": "StatefulPartitionedCall/functional_1_1/expanded_conv_3_expand_1/convolution/merged_input", "shape": [1, 1, 24, 96], "dtype": "float32"}, {"name": "StatefulPartitionedCall/functional_1_1/expanded_conv_3_expand_bn_1/batchnorm/sub", "shape": [96], "dtype": "float32"}, {"name": "StatefulPartitionedCall/functional_1_1/activation_1_2/Const", "shape": [], "dtype": "float32"}, {"name": "StatefulPartitionedCall/functional_1_1/expanded_conv_3_depthwise_pad_1/Const", "shape": [4, 2], "dtype": "int32"}, {"name": "StatefulPartitionedCall/functional_1_1/expanded_conv_3_depthwise_1/depthwise/ReadVariableOp", "shape": [5, 5, 96, 1], "dtype": "float32"}, {"name": "StatefulPartitionedCall/functional_1_1/expanded_conv_3_depthwise_bn_1/batchnorm/mul", "shape": [96], "dtype": "float32"}, {"name": "StatefulPartitionedCall/functional_1_1/expanded_conv_3_depthwise_bn_1/batchnorm/sub", "shape": [96], "dtype": "float32"}, {"name": "StatefulPartitionedCall/functional_1_1/activation_2_1/Const", "shape": [], "dtype": "float32"}, {"name": "StatefulPartitionedCall/functional_1_1/expanded_conv_3_project_1/convolution/merged_input", "shape": [1, 1, 96, 40], "dtype": "float32"}, {"name": "StatefulPartitionedCall/functional_1_1/expanded_conv_3_project_bn_1/batchnorm/sub", "shape": [40], "dtype": "float32"}, {"name": "StatefulPartitionedCall/functional_1_1/expanded_conv_4_expand_1/convolution/merged_input", "shape": [1, 1, 40, 240], "dtype": "float32"}, {"name": "StatefulPartitionedCall/functional_1_1/expanded_conv_4_expand_bn_1/batchnorm/sub", "shape": [240], "dtype": "float32"}, {"name": "StatefulPartitionedCall/functional_1_1/activation_3_1/Const", "shape": [], "dtype": "float32"}, {"name": "StatefulPartitionedCall/functional_1_1/expanded_conv_4_depthwise_1/depthwise/ReadVariableOp", "shape": [5, 5, 240, 1], "dtype": "float32"}, {"name": "StatefulPartitionedCall/functional_1_1/expanded_conv_4_depthwise_bn_1/batchnorm/mul", "shape": [240], "dtype": "float32"}, {"name": "StatefulPartitionedCall/functional_1_1/expanded_conv_4_depthwise_bn_1/batchnorm/sub", "shape": [240], "dtype": "float32"}, {"name": "StatefulPartitionedCall/functional_1_1/activation_4_1/Const", "shape": [], "dtype": "float32"}, {"name": "StatefulPartitionedCall/functional_1_1/expanded_conv_4_project_1/convolution/merged_input", "shape": [1, 1, 240, 40], "dtype": "float32"}, {"name": "StatefulPartitionedCall/functional_1_1/expanded_conv_5_expand_1/convolution/merged_input", "shape": [1, 1, 40, 240], "dtype": "float32"}, {"name": "StatefulPartitionedCall/functional_1_1/expanded_conv_5_expand_bn_1/batchnorm/sub", "shape": [240], "dtype": "float32"}, {"name": "StatefulPartitionedCall/functional_1_1/activation_5_1/Const", "shape": [], "dtype": "float32"}, {"name": "StatefulPartitionedCall/functional_1_1/expanded_conv_5_depthwise_1/depthwise/ReadVariableOp", "shape": [5, 5, 240, 1], "dtype": "float32"}, {"name": "StatefulPartitionedCall/functional_1_1/expanded_conv_5_depthwise_bn_1/batchnorm/mul", "shape": [240], "dtype": "float32"}, {"name": "StatefulPartitionedCall/functional_1_1/expanded_conv_5_depthwise_bn_1/batchnorm/sub", "shape": [240], "dtype": "float32"}, {"name": "StatefulPartitionedCall/functional_1_1/activation_6_1/Const", "shape": [], "dtype": "float32"}, {"name": "StatefulPartitionedCall/functional_1_1/expanded_conv_5_project_1/convolution/merged_input", "shape": [1, 1, 240, 40], "dtype": "float32"}, {"name": "StatefulPartitionedCall/functional_1_1/expanded_conv_6_expand_1/convolution/merged_input", "shape": [1, 1, 40, 120], "dtype": "float32"}, {"name": "StatefulPartitionedCall/functional_1_1/expanded_conv_6_expand_bn_1/batchnorm/sub", "shape": [120], "dtype": "float32"}, {"name": "StatefulPartitionedCall/functional_1_1/activation_7_1/Const", "shape": [], "dtype": "float32"}, {"name": "StatefulPartitionedCall/functional_1_1/expanded_conv_6_depthwise_1/depthwise/ReadVariableOp", "shape": [5, 5, 120, 1], "dtype": "float32"}, {"name": "StatefulPartitionedCall/functional_1_1/expanded_conv_6_depthwise_bn_1/batchnorm/mul", "shape": [120], "dtype": "float32"}, {"name": "StatefulPartitionedCall/functional_1_1/expanded_conv_6_depthwise_bn_1/batchnorm/sub", "shape": [120], "dtype": "float32"}, {"name": "StatefulPartitionedCall/functional_1_1/activation_8_1/Const", "shape": [], "dtype": "float32"}, {"name": "StatefulPartitionedCall/functional_1_1/expanded_conv_6_project_1/convolution/merged_input", "shape": [1, 1, 120, 48], "dtype": "float32"}, {"name": "StatefulPartitionedCall/functional_1_1/expanded_conv_6_project_bn_1/batchnorm/sub", "shape": [48], "dtype": "float32"}, {"name": "StatefulPartitionedCall/functional_1_1/expanded_conv_7_expand_1/convolution/merged_input", "shape": [1, 1, 48, 144], "dtype": "float32"}, {"name": "StatefulPartitionedCall/functional_1_1/expanded_conv_7_expand_bn_1/batchnorm/sub", "shape": [144], "dtype": "float32"}, {"name": "StatefulPartitionedCall/functional_1_1/activation_9_1/Const", "shape": [], "dtype": "float32"}, {"name": "StatefulPartitionedCall/functional_1_1/expanded_conv_7_depthwise_1/depthwise/ReadVariableOp", "shape": [5, 5, 144, 1], "dtype": "float32"}, {"name": "StatefulPartitionedCall/functional_1_1/expanded_conv_7_depthwise_bn_1/batchnorm/mul", "shape": [144], "dtype": "float32"}, {"name": "StatefulPartitionedCall/functional_1_1/expanded_conv_7_depthwise_bn_1/batchnorm/sub", "shape": [144], "dtype": "float32"}, {"name": "StatefulPartitionedCall/functional_1_1/activation_10_1/Const", "shape": [], "dtype": "float32"}, {"name": "StatefulPartitionedCall/functional_1_1/expanded_conv_7_project_1/convolution/merged_input", "shape": [1, 1, 144, 48], "dtype": "float32"}, {"name": "StatefulPartitionedCall/functional_1_1/expanded_conv_8_expand_1/convolution/merged_input", "shape": [1, 1, 48, 288], "dtype": "float32"}, {"name": "StatefulPartitionedCall/functional_1_1/expanded_conv_8_expand_bn_1/batchnorm/sub", "shape": [288], "dtype": "float32"}, {"name": "StatefulPartitionedCall/functional_1_1/activation_11_1/Const", "shape": [], "dtype": "float32"}, {"name": "StatefulPartitionedCall/functional_1_1/expanded_conv_8_depthwise_pad_1/Const", "shape": [4, 2], "dtype": "int32"}, {"name": "StatefulPartitionedCall/functional_1_1/expanded_conv_8_depthwise_1/depthwise/ReadVariableOp", "shape": [5, 5, 288, 1], "dtype": "float32"}, {"name": "StatefulPartitionedCall/functional_1_1/expanded_conv_8_depthwise_bn_1/batchnorm/mul", "shape": [288], "dtype": "float32"}, {"name": "StatefulPartitionedCall/functional_1_1/expanded_conv_8_depthwise_bn_1/batchnorm/sub", "shape": [288], "dtype": "float32"}, {"name": "StatefulPartitionedCall/functional_1_1/activation_12_1/Const", "shape": [], "dtype": "float32"}, {"name": "StatefulPartitionedCall/functional_1_1/expanded_conv_8_project_1/convolution/merged_input", "shape": [1, 1, 288, 96], "dtype": "float32"}, {"name": "StatefulPartitionedCall/functional_1_1/expanded_conv_8_project_bn_1/batchnorm/sub", "shape": [96], "dtype": "float32"}, {"name": "StatefulPartitionedCall/functional_1_1/expanded_conv_9_expand_1/convolution/merged_input", "shape": [1, 1, 96, 576], "dtype": "float32"}, {"name": "StatefulPartitionedCall/functional_1_1/expanded_conv_9_expand_bn_1/batchnorm/sub", "shape": [576], "dtype": "float32"}, {"name": "StatefulPartitionedCall/functional_1_1/activation_13_1/Const", "shape": [], "dtype": "float32"}, {"name": "StatefulPartitionedCall/functional_1_1/expanded_conv_9_depthwise_1/depthwise/ReadVariableOp", "shape": [5, 5, 576, 1], "dtype": "float32"}, {"name": "StatefulPartitionedCall/functional_1_1/expanded_conv_9_depthwise_bn_1/batchnorm/mul", "shape": [576], "dtype": "float32"}, {"name": "StatefulPartitionedCall/functional_1_1/expanded_conv_9_depthwise_bn_1/batchnorm/sub", "shape": [576], "dtype": "float32"}, {"name": "StatefulPartitionedCall/functional_1_1/activation_14_1/Const", "shape": [], "dtype": "float32"}, {"name": "StatefulPartitionedCall/functional_1_1/expanded_conv_9_project_1/convolution/merged_input", "shape": [1, 1, 576, 96], "dtype": "float32"}, {"name": "StatefulPartitionedCall/functional_1_1/expanded_conv_10_expand_1/convolution/merged_input", "shape": [1, 1, 96, 576], "dtype": "float32"}, {"name": "StatefulPartitionedCall/functional_1_1/expanded_conv_10_expand_bn_1/batchnorm/sub", "shape": [576], "dtype": "float32"}, {"name": "StatefulPartitionedCall/functional_1_1/activation_15_1/Const", "shape": [], "dtype": "float32"}, {"name": "StatefulPartitionedCall/functional_1_1/expanded_conv_10_depthwise_1/depthwise/ReadVariableOp", "shape": [5, 5, 576, 1], "dtype": "float32"}, {"name": "StatefulPartitionedCall/functional_1_1/expanded_conv_10_depthwise_bn_1/batchnorm/mul", "shape": [576], "dtype": "float32"}, {"name": "StatefulPartitionedCall/functional_1_1/expanded_conv_10_depthwise_bn_1/batchnorm/sub", "shape": [576], "dtype": "float32"}, {"name": "StatefulPartitionedCall/functional_1_1/activation_16_1/Const", "shape": [], "dtype": "float32"}, {"name": "StatefulPartitionedCall/functional_1_1/expanded_conv_10_project_1/convolution/merged_input", "shape": [1, 1, 576, 96], "dtype": "float32"}, {"name": "StatefulPartitionedCall/functional_1_1/conv_1_2/convolution/merged_input", "shape": [1, 1, 96, 576], "dtype": "float32"}, {"name": "StatefulPartitionedCall/functional_1_1/conv_1_bn_1/batchnorm/sub", "shape": [576], "dtype": "float32"}, {"name": "StatefulPartitionedCall/functional_1_1/activation_17_1/Const", "shape": [], "dtype": "float32"}, {"name": "StatefulPartitionedCall/functional_1_1/global_average_pooling2d_1/Mean/reduction_indices", "shape": [2], "dtype": "int32"}, {"name": "StatefulPartitionedCall/functional_1_1/conv_2_1/convolution/ReadVariableOp", "shape": [1, 1, 576, 1024], "dtype": "float32"}, {"name": "StatefulPartitionedCall/functional_1_1/conv_2_1/Reshape", "shape": [1, 1, 1, 1024], "dtype": "float32"}, {"name": "StatefulPartitionedCall/functional_1_1/activation_18_1/Const", "shape": [], "dtype": "float32"}, {"name": "StatefulPartitionedCall/functional_1_1/logits_1/convolution/ReadVariableOp", "shape": [1, 1, 1024, 1000], "dtype": "float32"}, {"name": "StatefulPartitionedCall/functional_1_1/logits_1/Reshape", "shape": [1, 1, 1, 1000], "dtype": "float32"}, {"name": "StatefulPartitionedCall/functional_1_1/flatten_1/Reshape/shape", "shape": [2], "dtype": "int32"}, {"name": "StatefulPartitionedCall/functional_1_1/dense_1/Cast/ReadVariableOp", "shape": [1000, 7], "dtype": "float32"}, {"name": "StatefulPartitionedCall/functional_1_1/dense_1/Add/ReadVariableOp", "shape": [7], "dtype": "float32"}]}]}